models/l1_comparison/model_l1_3.pt (torch, 38847 bytes, 7 tensors)

weight f4 [64, 4]
0	0x3eb9ab63	0.3626357
1	0x3f1a38cc	0.60242915
2	0x3e56d22d	0.20978613
3	0x3e1819cb	0.14853589
4	0x3ec74e85	0.38927093
5	0x3f934779	1.1506187
6	0x3d80bc45	0.062859096
7	0xbec1495d	-0.37751284
8	0xbe6e1a62	-0.23252252
9	0xbc13ba9d	-0.00901666
10	0xbd51cd44	-0.051221147
11	0xbd1aab2b	-0.037760895
12	0xbe00cc9f	-0.12578057
13	0xbe3b8316	-0.18311724
14	0xbdcd1493	-0.1001369
15	0xbe38bdd4	-0.18041164
16	0xbef39314	-0.4757315
17	0xbf8cfec9	-1.1015254
18	0xbde1ac4b	-0.110191904
19	0xbeda342f	-0.42617938
20	0x3f208110	0.62696934
21	0x3f33ee2e	0.7028531
22	0x3de7a527	0.11310797
23	0x3d4033bb	0.046924334
24	0x3edb2a70	0.42805815
25	0xbe608ec1	-0.21929456
26	0xbf54b964	-0.83095384
27	0x3f034701	0.5128022
28	0xbed77440	-0.4208088
29	0xbf9abab3	-1.2088226
30	0xbf45473a	-0.7706181
31	0xbe3b957d	-0.18318744
32	0x3f0ac192	0.54201615
33	0x3f8599d8	1.0437574
34	0x3f835290	1.0259571
35	0x3ccdfe79	0.025145756
36	0xbc81ecd5	-0.01586
37	0xbfddcbde	-1.732784
38	0xbf360a4f	-0.7110948
39	0x3e1a6b22	0.1507993
40	0xbd833022	-0.06405665
41	0xbf443ce6	-0.76655424
42	0xbedfb74d	-0.43694535
43	0x3ebf044a	0.3730796
44	0x3d6fa835	0.058510024
45	0x3f8fa2f0	1.12216
46	0x3f51dea9	0.8198038
47	0x3ec8f64c	0.3925041
48	0xbf1983c5	-0.5996669
49	0xbfbbe85d	-1.4680287
50	0xbe921bca	-0.28536826
51	0x3e6f8d8b	0.23393838
52	0x3e15a75f	0.14614628
53	0xbe76b6e5	-0.24093206
54	0x3e19eefe	0.15032575
55	0x3df9da70	0.12199867
56	0xbebbfa3d	-0.36714354
57	0x3e275d19	0.16344108
58	0x3e8122a7	0.2522175
59	0x3eac2cd4	0.3362795
60	0x3e9705ea	0.294967
61	0x3f9156cb	1.1354612
62	0x3f8d6317	1.1045865
63	0x3ea1c8b0	0.31598425
64	0x3f09ae7b	0.5378186
65	0xbf10376b	-0.5633456
66	0x3cac171e	0.021007117
67	0xbed0d716	-0.40789098
68	0xbefc7b84	-0.49312985
69	0xbfcd07b0	-1.6017971
70	0xbef528d1	-0.47882703
71	0xbd44fe9f	-0.048094388
72	0x3ed07af8	0.40718818
73	0x3fcfca62	1.6233637
74	0x3eaf0897	0.3418624
75	0x3ea79aa5	0.32735172
76	0xbd22d888	-0.03975728
77	0x3fa39f38	1.2782965
78	0x3f0ddeef	0.55418295
79	0x3e622a99	0.22086562
80	0xbe86666d	-0.2625002
81	0xbf336e14	-0.7008984
82	0xbd466cf5	-0.048443753
83	0x3f069bd5	0.5258153
84	0x3e8cdef9	0.27513865
85	0xbe465514	-0.19368392
86	0xbedd957d	-0.43278113
87	0xbd5d6157	-0.05404791
88	0x3df35442	0.11881305
89	0x3eba48fd	0.3638381
90	0x3f2227b5	0.6334184
91	0x3ea467f4	0.3211056
92	0xbebeb02c	-0.37243783
93	0x3f967961	1.1755792
94	0x3ef748ae	0.48297638
95	0xbe9a3ee4	-0.30126107
96	0x3de377f6	0.11106865
97	0x3f8a1467	1.0787476
98	0x3fbe1a1d	1.4851719
99	0x3f034077	0.5127024
100	0xbe1e9568	-0.15486681
101	0xbe24e9d2	-0.1610482
102	0xbda15518	-0.078775585
103	0x3e161f30	0.14660335
104	0xbc5068ab	-0.012720267
105	0xbddfff2a	-0.109373406
106	0xbe06a965	-0.13150556
107	0x3bcd740d	0.006269938
108	0x3e330139	0.17480935
109	0xbea23746	-0.31682795
110	0xbf66009e	-0.8984469
111	0x3eeda8ef	0.4641795
112	0x3f0da3a3	0.55327815
113	0xbe840db6	-0.2579171
114	0xbf008140	-0.5019722
115	0x3d1231ff	0.03569221
116	0xbef1492e	-0.47126144
117	0xbf628baa	-0.8849436
118	0xbe1b7b71	-0.15183808
119	0xbeca3503	-0.3949357
120	0x3eb2d4bd	0.3492793
121	0xbf2a0ee0	-0.6642895
122	0x3ec35691	0.38151982
123	0xbed6dd7a	-0.41965848
124	0x3d8541f8	0.06506723
125	0x3ce5a499	0.028032588
126	0xbe67f90d	-0.22653599
127	0x3f15ee15	0.5856641
128	0xbf20dd8f	-0.6283807
129	0xbfc614cb	-1.5475096
130	0xbf292be2	-0.66082585
131	0x3e9f1805	0.31073013
132	0x3e47c31a	0.19508019
133	0xbec34014	-0.38134825
134	0x3d883ced	0.06652246
135	0xbd2adb1e	-0.041712873
136	0xbe92e615	-0.28691164
137	0x3e2a01d4	0.1660226
138	0xbe8c40f7	-0.27393314
139	0x3e3b8ae2	0.18314698
140	0x3ea4da10	0.32197618
141	0xbf619854	-0.8812306
142	0xbf72bf85	-0.94823486
143	0x3edf2df1	0.43589738
144	0xbf138c7b	-0.5763623
145	0x3f99cc1d	1.2015415
146	0x3f8ee773	1.1164383
147	0xbd0f5267	-0.034990694
148	0xbe8cd63c	-0.27507198
149	0xbf073a02	-0.5282289
150	0x3de6159c	0.112345904
151	0x3e16ea57	0.14737831
152	0x3f2afc0d	0.6679085
153	0xbf328687	-0.6973652
154	0x3e309de2	0.17247728
155	0xbe1accc3	-0.15117173
156	0xbf141123	-0.5783865
157	0xbf29934e	-0.66240394
158	0xbf46ff7d	-0.77733594
159	0x3d37f8f9	0.044915173
160	0x3dccf428	0.100075066
161	0xbe38ebc4	-0.18058687
162	0x3ebd2257	0.36940262
163	0xbf0558ea	-0.520888
164	0xbdcf1906	-0.10112195
165	0x3e80736d	0.25088063
166	0x3da55765	0.0807331
167	0xbeaafdb8	-0.33396697
168	0xbeb3dd13	-0.35129604
169	0xbf220784	-0.6329272
170	0xbf4edc61	-0.8080502
171	0x3ef165ba	0.47147924
172	0xbe33cb73	-0.17558078
173	0xbd60a5df	-0.054845687
174	0xbea0e443	-0.3142415
175	0x3e3ad4ad	0.18245192
176	0x3eb05c1a	0.34445268
177	0x3d8ef0f3	0.06979551
178	0xbf33a9ed	-0.7018116
179	0x3db2d2cd	0.08731613
180	0xbea8df48	-0.3298285
181	0x3f4aee18	0.7926955
182	0x3ef6ec24	0.48227036
183	0x3edc8865	0.4307281
184	0xbe8d5736	-0.276056
185	0x3f1b4ad1	0.60661036
186	0xbee5f8a3	-0.44916257
187	0xbebb8acf	-0.3662934
188	0x3f3d5e77	0.73972267
189	0x3edb8e12	0.4288183
190	0x3ea4e5ea	0.3220666
191	0xbee4908e	-0.44641536
192	0x3f11c2dd	0.5693796
193	0x3fda6763	1.7062801
194	0x3eaee5fd	0.34159842
195	0x3e8071af	0.25086734
196	0xbe4804b3	-0.19533043
197	0x3ebafeb5	0.3652245
198	0x3f3f9889	0.74842125
199	0x3f1833bd	0.59453946
200	0xbdbf36af	-0.09336602
201	0x3f8f723c	1.1206737
202	0x3f0207a9	0.5079294
203	0xbea4921c	-0.32142723
204	0x3f05e055	0.5229543
205	0x3f69009d	0.9101656
206	0x3f6bc737	0.9210085
207	0x3e4008b4	0.1875332
208	0xbeb9f9fb	-0.36323532
209	0x3d6e8f27	0.05824199
210	0x3f007d5f	0.501913
211	0xbd8f3e87	-0.06994348
212	0xbeb530c9	-0.35388783
213	0x3e83739d	0.25674143
214	0xbf30e699	-0.69101864
215	0xbf06d42b	-0.5266749
216	0x3e2e2d8c	0.17009562
217	0x3f051db4	0.5199845
218	0x3f095155	0.5363973
219	0xbe14ddc9	-0.1453773
220	0x3e9e9f49	0.309809
221	0xbd1dcb32	-0.03852386
222	0xbf075b53	-0.52873725
223	0x3d334f33	0.043776702
224	0xbe840324	-0.25783646
225	0xbfe6a88b	-1.8020185
226	0xbfa97073	-1.3237442
227	0x3dd936b2	0.106061354
228	0xbdae873e	-0.08521889
229	0x3d096c80	0.03355074
230	0xbe8224f2	-0.25418812
231	0xbe68cd28	-0.22734511
232	0x3ea504f2	0.32230335
233	0x3fb7d24c	1.4361053
234	0x3e2504a6	0.16115054
235	0xbe9d7a07	-0.30757162
236	0xbe91f38e	-0.2850613
237	0xbeafe271	-0.3435245
238	0x3e8d5078	0.27600455
239	0xbeb36f98	-0.35046077
240	0xbf0e595b	-0.55605096
241	0x3fa6bb70	1.3025951
242	0x3f671011	0.9025889
243	0xbe3ff60f	-0.18746208
244	0xbdd6a459	-0.104805656
245	0xba8a3d53	-0.001054684
246	0xbe2bee10	-0.16790032
247	0x3e3b82f1	0.18311669
248	0xbdf75605	-0.12076954
249	0x3e309ac6	0.17246541
250	0xbe80b1bb	-0.25135598
251	0x3e2a09f6	0.16605362
252	0x3f0291f0	0.5100393
253	0x3f4c71f8	0.798614
254	0x3f0faca2	0.5612279
255	0x3e106efd	0.14104839

bias f4 [64]
0	0x3e8ff010	0.2811284
1	0x3e94f45b	0.29092678
2	0x3e76a82f	0.24087594
3	0xbe3c4707	-0.1838647
4	0x3e86941d	0.26284876
5	0xbd8910ad	-0.06692634
6	0x3ea0bb90	0.313931
7	0x3ee1200d	0.43969765
8	0x3cf556aa	0.029948551
9	0xbedb4072	-0.42822605
10	0xbecee472	-0.40408665
11	0xbed1fa2b	-0.41011176
12	0x3d788a11	0.060678545
13	0x3e061105	0.1309243
14	0xbeaa9b7b	-0.33321747
15	0xbe89d1bf	-0.26917836
16	0xbef479b9	-0.47749117
17	0x3e3a4ba9	0.18192925
18	0xbe7e6286	-0.24842271
19	0x3e234b9a	0.15946808
20	0x3beb7576	0.0071856333
21	0x3e79c3cb	0.24391095
22	0x3ef86a1e	0.4851846
23	0xbe9b3ed9	-0.30321386
24	0x3f031e62	0.51218235
25	0xbd93b56a	-0.07212336
26	0xbd78da76	-0.060755216
27	0x3de51eb5	0.111874975
28	0x3e78aa2f	0.2428367
29	0x3e2a567f	0.16634558
30	0x3d8a18ac	0.06742987
31	0x3ea4b52a	0.32169467
32	0xbf037427	-0.5134911
33	0x3e833bad	0.25631467
34	0x3eaa3d43	0.33249864
35	0x3ef455e5	0.47721782
36	0x3d670168	0.056397825
37	0xbe745ef5	-0.23864348
38	0x3d2cef5c	0.04222046
39	0xbecdf87e	-0.40228647
40	0x3e8d913e	0.27649873
41	0x3e5de5ca	0.21669689
42	0x3ed66f88	0.41881967
43	0x3ee0c41a	0.43899614
44	0xbe5f2179	-0.21790113
45	0x3d6c9210	0.057756484
46	0xbef3263b	-0.47490105
47	0xbed6c4e8	-0.41947103
48	0xbeb35f60	-0.35033703
49	0x3eecd179	0.46253565
50	0x3eb300e5	0.3496162
51	0xbe732ce0	-0.23747587
52	0x3ed1afa5	0.4095432
53	0x3e0897c1	0.1333914
54	0x3dd205f8	0.10255045
55	0x3ea2e8ba	0.3181818
56	0xbeca3074	-0.39490092
57	0x3e989244	0.29799092
58	0x38e7c411	0.000110514586
59	0x3ed0f2f1	0.4081035
60	0x3e7b1da0	0.2452302
61	0xbeb5956d	-0.35465565
62	0x3eb6dc87	0.35715124
63	0xbe53f9a9	-0.20700707

weight f4 [64, 64]
0	0x3d0dca7e	0.03461694
1	0x3e06a42e	0.13148567
2	0xbde291be	-0.11062954
3	0xbc671353	-0.014103728
4	0x3db756ff	0.0895214
5	0x3cb624fb	0.02223443
6	0x3d873304	0.06601527
7	0xbd04677d	-0.032325257
8	0x3d3b7778	0.04576823
9	0x3e454e3c	0.19268125
10	0x3dc40ec6	0.0957313
11	0x3d867fbe	0.06567334
12	0x3d3d8215	0.046266634
13	0x3da1a8f4	0.078935534
14	0x3df99f5c	0.121885985
15	0x3d566826	0.052345417
16	0xbd209b80	-0.039210796
17	0x3ce622aa	0.028092701
18	0x3e556618	0.20839727
19	0x3e083bc0	0.13304043
20	0x3d59449d	0.05304395
21	0xbd0ae0ed	-0.033905912
22	0x3cb78800	0.022403717
23	0x3e5ddae8	0.21665537
24	0xbd5f1225	-0.054460663
25	0x3ceeb8c4	0.029140837
26	0xbda329a3	-0.07966926
27	0xbde50106	-0.11181836
28	0xbd375601	-0.044759754
29	0x3ddfabcc	0.109214395
30	0x3b0a7a1e	0.0021129916
31	0xbd872eab	-0.06600698
32	0x3de2579c	0.110518664
33	0x3d86c6ce	0.06580888
34	0xbd08e7ec	-0.033424303
35	0x3dcbdcb2	0.09954204
36	0x3d1d734d	0.038440038
37	0x3d4c11b8	0.049821585
38	0x3cd23c31	0.025663467
39	0x3d82613c	0.06366202
40	0x3cde7641	0.027155997
41	0x3dc1e3a3	0.094672464
42	0xbc73f7f5	-0.0148906605
43	0xbdd8985d	-0.10575936
44	0xbb56872b	-0.0032734375
45	0x3d90b2e2	0.07065369
46	0x3d05dd2e	0.032681637
47	0xbccac008	-0.02474977
48	0x3e5524ca	0.20814815
49	0xbdbf1804	-0.093307525
50	0x3e1f0f98	0.15533292
51	0x3dfee09f	0.12445187
52	0xbd7f19ad	-0.062280346
53	0x3dd52d24	0.104090005
54	0xbd4090be	-0.047013037
55	0x3c8b9527	0.017038895
56	0x3e9e8742	0.3096257
57	0x3ce97ae9	0.028500991
58	0x3e276b52	0.16349533
59	0x3db3e7ee	0.087844715
60	0x3db1d3de	0.086829886
61	0xbdee6d0f	-0.11641895
62	0xbd7711af	-0.0603196
63	0x3e0f2a50	0.13980985
64	0x3e183d8b	0.14867227
65	0x3e2105ee	0.15724918
66	0xbda7983a	-0.08183332
67	0x3dff8c77	0.124779634
68	0x3e2f6d3c	0.17131513
69	0x3d83d029	0.06436188
70	0xbd819062	-0.06326367
71	0x3e2c659b	0.16835634
72	0x3cfbcc57	0.030737085
73	0x3e15a053	0.1461194
74	0xbda9d454	-0.082924515
75	0x3e45ce32	0.19316939
76	0xbc1a2f0f	-0.009410634
77	0x3d3cfae9	0.046137724
78	0xbd2d0eee	-0.042250566
79	0xbd66d4f4	-0.05635543
80	0x3de72746	0.11286788
81	0x3e82efad	0.25573483
82	0x3e8a9f0f	0.27074477
83	0x3d4a2ad1	0.04935724
84	0x3c81cfce	0.01584616
85	0x3d0e7d84	0.03478767
86	0xbd6ad19c	-0.057328805
87	0x3dd822b3	0.10553493
88	0x3d995348	0.07486588
89	0x3c2b5510	0.010457292
90	0xbd89ac2d	-0.06722293
91	0x3d0c99be	0.034326307
92	0xbbe6c429	-0.007042427
93	0x3d858255	0.065189995
94	0xbd049371	-0.032367174
95	0xbc3fc310	-0.011704221
96	0x3e39ec95	0.18156655
97	0x3c897636	0.01678
98	0xbd850759	-0.06495542
99	0xbc89f9c9	-0.01684274
100	0x3c58531d	0.0132034095
101	0x3e06fb29	0.13181747
102	0x3e2acfb0	0.16680789
103	0x3e0b2205	0.13587196
104	0xbd6bfd50	-0.057614625
105	0xbc9d8f70	-0.019233435
106	0x3d45163c	0.048116907
107	0xbc068faf	-0.008212968
108	0x3d9d7dfa	0.07690044
109	0x3df1e863	0.118119024
110	0x3d4c4a0a	0.049875297
111	0xbc287263	-0.010281178
112	0x3e546170	0.20740294
113	0x3e0d5bf9	0.13804616
114	0x3b93743e	0.004499941
115	0x3dbe706f	0.09298789
116	0x3d8aded7	0.067807846
117	0xbd198881	-0.037483696
118	0x3db7efd5	0.08981291
119	0xbd9f2fac	-0.077727646
120	0x3eb43c98	0.3520248
121	0xbd8246fb	-0.06361195
122	0x3e408142	0.18799308
123	0x3d424761	0.047431353
124	0x3dc143c5	0.09436754
125	0xbd0904ab	-0.033451717
126	0x3debdb74	0.11516467
127	0xbd66c3f5	-0.056339223
128	0xbc99cbf3	-0.018774008
129	0xbcec8f1c	-0.028876834
130	0x3cc15de0	0.023604333
131	0x3daa36f7	0.08311265
132	0x3c865510	0.016397983
133	0xbdc8b193	-0.097994946
134	0x3e3104d6	0.17287001
135	0xbb1e2a96	-0.002413427
136	0xbe4b0ef0	-0.19829917
137	0xbe522253	-0.20520906
138	0x3dc8f6ac	0.09812674
139	0xbb7573a1	-0.0037452953
140	0xbd5cbbf9	-0.053890202
141	0x3dd3e2c8	0.103459895
142	0x3de3cbdb	0.11122867
143	0x3dbd5889	0.09245402
144	0xbd533d5f	-0.0515722
145	0xbe5b78de	-0.21432826
146	0xbb828217	-0.003982793
147	0x3d3b2e7d	0.04569863
148	0x3a3ffda1	0.00073238654
149	0x3e0b61b7	0.13611494
150	0x3d9cc72d	0.07655177
151	0xbd870622	-0.065929666
152	0x3de6f545	0.1127725
153	0xbcc9557e	-0.024576899
154	0x3cfe3a87	0.031033767
155	0x3d7d044f	0.061771687
156	0x3dac010a	0.08398636
157	0x3c6e464b	0.014543126
158	0x3ba93620	0.005163923
159	0xbc8697c8	-0.016429797
160	0xbdd2296a	-0.10261805
161	0x3dc34398	0.09534377
162	0x3de55971	0.111987
163	0x3d08e766	0.033423804
164	0xbe52cebd	-0.20586677
165	0x3ce42b0e	0.027852561
166	0xbdf3c970	-0.119036555
167	0x3cf26ce5	0.02959294
168	0x3c81a970	0.015827864
169	0xbc4483af	-0.011994286
170	0x3c94933b	0.018136611
171	0xbd6d3faa	-0.057922043
172	0x3dc19469	0.09452135
173	0x3dfbfb7d	0.12303827
174	0x3dace12b	0.08441385
175	0xbdc03338	-0.09384769
176	0xbdbcfe34	-0.09228173
177	0x3ded9de9	0.116023846
178	0xbe68aa9c	-0.22721332
179	0x3d898ac7	0.06715923
180	0xbd4f1625	-0.050558228
181	0x3c392fb8	0.011302881
182	0xbd58a7b4	-0.05289431
183	0xbb9bc1af	-0.0047533135
184	0xbe46d3f4	-0.19416791
185	0x3dab64a2	0.083688036
186	0xbe334d87	-0.17510043
187	0x3dd178be	0.10228108
188	0xbe28d5b9	-0.16487779
189	0x3dc72e99	0.09725685
190	0xbdd1b744	-0.10240033
191	0x3cbd3d01	0.023100378
192	0xbdb8485a	-0.08998175
193	0xbb9fca93	-0.0048764437
194	0x3d5493e2	0.051898845
195	0x3d148c4c	0.03626661
196	0x3d707bbd	0.058711756
197	0xbcf9bf11	-0.030486615
198	0x3dd44a51	0.10365737
199	0x3d47b853	0.04875977
200	0xbdd64730	-0.10462797
201	0x3e164bb4	0.14677316
202	0xbc6cd400	-0.014454842
203	0x3c8547f1	0.016269656
204	0x3e653733	0.22384338
205	0xbd98c5a1	-0.0745957
206	0xbe0bfff2	-0.13671854
207	0xbb4e919b	-0.0031519893
208	0xbd1e7548	-0.038686067
209	0x3d8ced70	0.06881225
210	0x3d97314e	0.07382451
211	0xbc8efe74	-0.017455317
212	0xbdb735e6	-0.08945827
213	0x3e150d8e	0.14555952
214	0xbe05ccef	-0.13066457
215	0xbd0f330b	-0.034960788
216	0xbe026e08	-0.12737286
217	0x3b69724b	0.0035621102
218	0x3cf1b740	0.029506326
219	0xbd2aa352	-0.04165966
220	0xbc05830a	-0.008148918
221	0x3e28744f	0.16450618
222	0x3d6f8a17	0.058481302
223	0x3d290c4c	0.041271493
224	0x3ea6fa61	0.326129
225	0x3da38429	0.07984192
226	0xbda7bf7f	-0.08190822
227	0x3e1fb1da	0.15595189
228	0xbd86bfc0	-0.06579542
229	0xbc8609d1	-0.016362103
230	0x3e0d6449	0.13807787
231	0x3e3143d9	0.17311038
232	0x3da8dad1	0.08244861
233	0x3d00c011	0.03143317
234	0xbcc481b6	-0.023987632
235	0xbdf5425b	-0.11975547
236	0x3da11cb3	0.07866802
237	0xbc77f4ff	-0.015134095
238	0xbd2d8e7c	-0.04237221
239	0x3e384b68	0.17997515
240	0x3d328fcc	0.043594167
241	0xbdd78697	-0.10523718
242	0x3d6d828e	0.057985835
243	0x3d2cab3d	0.042155493
244	0xbe06d5bd	-0.13167472
245	0x3e1aa07f	0.15100287
246	0xbd913450	-0.07090056
247	0x3dcef7e9	0.10105879
248	0x3ec7ac54	0.38998663
249	0x3dedc5fd	0.11610029
250	0x3d8474b0	0.06467569
251	0x3dfc55e7	0.12321072
252	0xbdca6c8b	-0.09883984
253	0xbba5ab33	-0.005055809
254	0xbe15f4f1	-0.14644219
255	0xbd8cb531	-0.06870497

bias f4 [64]
0	0x3d959f29	0.07305748
1	0x3db5dbac	0.0887979
2	0xbdc894d9	-0.097940154
3	0xbdc9a479	-0.09845824
4	0x3e3b60e1	0.18298675
5	0x3dfd74c8	0.1237579
6	0x3d47dcf0	0.048794687
7	0x3e4842cf	0.19556735
8	0x3ca0bdd5	0.019621769
9	0xbdd07325	-0.10178212
10	0xbccff30a	-0.025384445
11	0xbd00a584	-0.031407848
12	0xbdfa4619	-0.12220401
13	0xbd986358	-0.07440823
14	0xbbbe74c2	-0.0058122585
15	0x3dd11c96	0.102105305
16	0xbcfed097	-0.031105323
17	0x3e5676d4	0.20943767
18	0x3d506c4a	0.050884522
19	0xbd06d1ae	-0.03291481
20	0xbd9291ac	-0.07156691
21	0x3c401032	0.011722611
22	0xbd321138	-0.043473452
23	0x3cab243d	0.020891303
24	0x3e1095da	0.14119664
25	0x3dad7f6e	0.08471571
26	0xbdb94491	-0.09046281
27	0x3e4d299f	0.20035408
28	0xbd58aae7	-0.05289736
29	0x3dab6560	0.08368945
30	0x3e256d3b	0.1615495
31	0x3dbaf75b	0.091292106
32	0xbdbc9059	-0.0920722
33	0xbd8456b7	-0.06461852
34	0xbdd3a914	-0.103349835
35	0x3dbe5546	0.09293608
36	0x3d5cdbc8	0.053920537
37	0x3db77cc4	0.08959344
38	0xbd01ca12	-0.03168685
39	0xbcb4a611	-0.022051843
40	0xbe22b73a	-0.15890208
41	0x3de7ad6e	0.11312376
42	0x3c938759	0.018008875
43	0xbcdf2b76	-0.027242403
44	0x3c80f858	0.01574342
45	0x3c932898	0.017963693
46	0x3d7f583a	0.06234
47	0x3e1ae4dc	0.15126365
48	0xbce7b1fa	-0.028283108
49	0x3d0949ec	0.033517763
50	0xbe077ee6	-0.13232002
51	0x3e618e95	0.22027047
52	0x3da7f101	0.08200265
53	0x3e1cc086	0.15307817
54	0x3c446ca9	0.011988797
55	0x3bffa75d	0.0078019337
56	0xbdd0697a	-0.10176368
57	0x3e0f39ce	0.13986894
58	0xbcee2cc0	-0.029074073
59	0xbde91d47	-0.11382537
60	0x3d83544c	0.06412563
61	0xbcc28a52	-0.023747597
62	0x3cffa650	0.031207234
63	0x3dc27ae4	0.09496096

weight f4 [64, 64]
0	0xbd78901f	-0.06068432
1	0xbcf9ba37	-0.030484302
2	0x3e197cca	0.1498901
3	0xbe0c26cb	-0.13686673
4	0x3e562ec1	0.20916273
5	0x3e422d33	0.18962555
6	0xbc491d28	-0.012275018
7	0x3e4dd855	0.20102055
8	0xbdac1b0d	-0.08403597
9	0xbe0acfb8	-0.13555801
10	0xbe3848c6	-0.17996511
11	0x3e44381d	0.1916203
12	0x3d921faf	0.071349494
13	0xbe1b5e9b	-0.15172808
14	0x3db5ae82	0.08871175
15	0x3dbb5fc5	0.09149126
16	0xbd20baa4	-0.039240494
17	0x3d671574	0.056416944
18	0x3d781fe2	0.06057728
19	0x3da98483	0.08277228
20	0xbe92e7a6	-0.2869236
21	0x3d0a87f9	0.03382108
22	0xbd3d6844	-0.046242014
23	0x3e6bdb5c	0.23032898
24	0x3d26518a	0.040605105
25	0x3e6201b1	0.22070958
26	0x3cab80f1	0.020935507
27	0x3e54c69a	0.20778885
28	0x3db8d836	0.09025614
29	0x3e663c3b	0.22483914
30	0x3e090140	0.13379383
31	0xbd2bd59d	-0.041951764
32	0xbdf179b7	-0.117907934
33	0x3dd05654	0.10172716
34	0xbb4ef96f	-0.003158178
35	0x3e1306c1	0.14358045
36	0x3df1f413	0.118141316
37	0x3e430c95	0.19047768
38	0x3b695046	0.0035600825
39	0xbd7c7d53	-0.061642956
40	0xbe89e39f	-0.26931474
41	0x3cdf6361	0.027269067
42	0xbe07f074	-0.1327532
43	0xbdd44934	-0.10365525
44	0x3e95a476	0.29227036
45	0xbdb8598f	-0.09001457
46	0x3d4279e6	0.047479533
47	0x3e18e1c8	0.14929879
48	0xbdf03e48	-0.11730629
49	0xbda842a0	-0.08215833
50	0x3cf0e5c8	0.029406443
51	0x3e11ed84	0.14250761
52	0x3e430284	0.19043928
53	0x3e3ef855	0.18649419
54	0x3e2c5ec3	0.16833024
55	0x3e7913b5	0.24323924
56	0xbde0a8dc	-0.10969707
57	0x382474ff	3.9209608e-05
58	0x3d1943be	0.03741812
59	0xbe136821	-0.14395191
60	0x3dcee2e2	0.10101868
61	0x3d98d725	0.074629106
62	0x3da61be6	0.0811079
63	0x3e729fda	0.23693791
64	0xbe1e538c	-0.15461558
65	0x3c915009	0.017738359
66	0x3dbdd32c	0.092687935
67	0xbcf60fa2	-0.030036751
68	0x3e653827	0.22384702
69	0x3df05fac	0.11736998
70	0xbb19d664	-0.0023473734
71	0x3df4220a	0.11920555
72	0xbd040ed6	-0.03224071
73	0xbd4c553d	-0.049885977
74	0xbe011edf	-0.12609433
75	0x3dab398b	0.08360585
76	0xbdcb179f	-0.09916615
77	0xbe965164	-0.2935897
78	0x3e646163	0.22302775
79	0x3d1e8116	0.038697325
80	0x3d0aa45a	0.033848144
81	0x3e1f8019	0.15576209
82	0x3e1987f2	0.14993265
83	0x3dedc37d	0.11609552
84	0xbe9c184c	-0.30487287
85	0xbd9ea37c	-0.07746026
86	0xbd802adf	-0.06258177
87	0x3d95b2ac	0.073094696
88	0x3e4a369a	0.19747391
89	0x3d309d7a	0.04311893
90	0xbd2cacf3	-0.042157125
91	0x3dbfe23d	0.093693234
92	0x3e2be926	0.16788158
93	0x3e4a0e04	0.19731909
94	0x3e260d30	0.16215968
95	0x3dc0b7ca	0.09410055
96	0xbe186e2c	-0.14885777
97	0x3dff2875	0.124588884
98	0x3d3b2fd6	0.045699917
99	0x3c8cee1e	0.017203387
100	0x3df4a85b	0.11946174
101	0xbb6c7c3c	-0.0036084792
102	0xbd031ad0	-0.032007992
103	0xbceb3ef8	-0.02871655
104	0xbe7930f2	-0.24335077
105	0xbddf318e	-0.10898124
106	0xbd7c8ec1	-0.06165958
107	0xbce87cd5	-0.028379837
108	0x3c2ed34c	0.010670494
109	0x3d8b9d5b	0.068171225
110	0x3de520b9	0.11187882
111	0x3ca9795d	0.020687753
112	0xbdbd20d3	-0.09234776
113	0x3d5ee63c	0.054418787
114	0xbcb848ec	-0.02249571
115	0x3e070f3d	0.13189407
116	0x3db21ad3	0.086965226
117	0x3de47968	0.11155969
118	0x3ce8feab	0.028441748
119	0x3da7e4fa	0.08197971
120	0xba89df97	-0.0010518905
121	0x3e191393	0.14948873
122	0xbd9d3742	-0.07676555
123	0xbe0c9ae9	-0.13730969
124	0x3da1a689	0.07893092
125	0xbd432ebb	-0.047651988
126	0x3e18cd20	0.14921999
127	0x3d7bf4be	0.0615127
128	0x3d4c11f1	0.049821798
129	0x3de63091	0.11239732
130	0x3da3c7ea	0.07997115
131	0xbd524459	-0.051334713
132	0x3c938142	0.01800597
133	0x3db39736	0.087690756
134	0xba5688b3	-0.0008183822
135	0x3daf9a61	0.08574367
136	0x3db84d3b	0.089991055
137	0x3d0240df	0.031800147
138	0xbcb2dd03	-0.021833902
139	0xbdfb103f	-0.12258958
140	0xbd046584	-0.032323375
141	0x3c225445	0.009907787
142	0xbdf0e49f	-0.11762356
143	0xbd064793	-0.032783102
144	0x3d0bc6d1	0.034125153
145	0xbd1249f9	-0.035715077
146	0x3cd77da3	0.026305025
147	0xbdcdf8be	-0.100572094
148	0x3b9deeb8	0.0048197173
149	0x3de03fb0	0.109496474
150	0x3ce1cbe7	0.027563049
151	0xbda4208a	-0.08014019
152	0xbdac3545	-0.08408598
153	0xbdb01263	-0.08597257
154	0x3cd8780b	0.026424428
155	0xbdb3fbd7	-0.08788269
156	0xbd4672ed	-0.048449446
157	0xbe2fe4e5	-0.1717716
158	0xbe18d818	-0.14926183
159	0x3c8586af	0.016299574
160	0x3d6eccd4	0.058300808
161	0xbd8b3cf5	-0.06798736
162	0xbd941e37	-0.072323255
163	0xbd4f86f6	-0.05066582
164	0x3c525b19	0.012839102
165	0xbc66c4db	-0.01408502
166	0x3bf53cea	0.007484068
167	0x3e1a9021	0.15094043
168	0xbd2812c8	-0.041033536
169	0x3d54008b	0.05175833
170	0x3c950397	0.018190188
171	0x3dd73814	0.10508743
172	0xbcde87f3	-0.027164435
173	0xbc153d12	-0.009108799
174	0x3d51bf7f	0.051208016
175	0x3c17148e	0.009221209
176	0x3dbbb87d	0.09166048
177	0xbdcea03d	-0.10089157
178	0x3ba0b82c	0.0049047675
179	0xbd100fd4	-0.035171345
180	0xbdab3c2b	-0.083610855
181	0xbdd95088	-0.10611063
182	0xbc838caa	-0.016058285
183	0xbd5203ae	-0.05127304
184	0x3d604806	0.054756187
185	0x3dcf80a7	0.1013196
186	0x3d532f48	0.051558763
187	0x3c17cfc2	0.009265842
188	0xbdee4eaf	-0.116361015
189	0xbdaa2d2f	-0.08309399
190	0xbc972d99	-0.01845436
191	0xbd2f4805	-0.042793293
192	0x3d95b4c6	0.073098704
193	0x3e0ab067	0.13543855
194	0xbd3b1a72	-0.045679517
195	0x3d69402a	0.056945957
196	0xbd84d370	-0.06485641
197	0x3d9d4b88	0.07680422
198	0xbd300a43	-0.042978536
199	0x3cd33003	0.02577973
200	0x3dd6e1cc	0.10492286
201	0xbd8215d2	-0.06351818
202	0x3d31e334	0.04342957
203	0xbc8fb609	-0.017542856
204	0xbb6ce24b	-0.0036145623
205	0xbd27cf58	-0.040969223
206	0xbde6ab3c	-0.11263129
207	0x3dc67e92	0.0969211
208	0x3e18e494	0.14930946
209	0x3db1a002	0.08673097
210	0x3d37ed14	0.04490383
211	0x3dd221ac	0.10260329
212	0x3e31abbc	0.17350668
213	0x3d94c920	0.07264924
214	0xbc36eba3	-0.011164579
215	0xbdcc26e4	-0.09968355
216	0xbab31150	-0.0013661776
217	0x3cbfa0eb	0.023392161
218	0x3df1f641	0.11814547
219	0x3d0a0d15	0.033703882
220	0xbd8dce74	-0.069241434
221	0xbe3038d9	-0.17209186
222	0xbe0bb78b	-0.13644235
223	0x3e11c563	0.14235453
224	0x3e145503	0.14485554
225	0x3d3ba4d5	0.045811493
226	0x3cb3c5b0	0.02194485
227	0xbbfd1554	-0.00772349
228	0xbb81a743	-0.0039567067
229	0xbe1f1f5c	-0.15539306
230	0x3db0b4e1	0.0862825
231	0x3da15d2f	0.078791015
232	0x3de32d94	0.11092678
233	0x3df52ddf	0.1197164
234	0x3d549e01	0.051908497
235	0x3ad83622	0.0016495625
236	0xbe18eed6	-0.14934859
237	0xbd284fec	-0.041091844
238	0xbde504b0	-0.11182535
239	0xbd7614e9	-0.060078535
240	0xbb119028	-0.0022211168
241	0xbd110016	-0.035400473
242	0x3d04090e	0.032235198
243	0xbdd97f43	-0.10619976
244	0xbda94329	-0.08264763
245	0xbd3fb504	-0.04680349
246	0xbd6ac8a0	-0.057320237
247	0x3d1e48a2	0.038643487
248	0x3df8e307	0.12152677
249	0x3da40499	0.080086894
250	0x3dc4856b	0.0959576
251	0xbd936890	-0.07197678
252	0x3b82bd81	0.003989876
253	0xbdc9cfd6	-0.09854095
254	0xbdae4b00	-0.08510399
255	0x3dd231e3	0.102634214

bias f4 [64]
0	0xbd950faf	-0.07278382
1	0x3e08be22	0.1335378
2	0x3c95979d	0.018260771
3	0x3d43b42c	0.047779247
4	0x3dc2b20a	0.095066145
5	0x3d83a3f1	0.06427754
6	0xbd51700e	-0.051132254
7	0xbd187c59	-0.037227962
8	0xbcb0f15a	-0.02159946
9	0xbcaf6606	-0.021410953
10	0x3d7d5dba	0.061856963
11	0xbda36145	-0.07977537
12	0xbd22d0b8	-0.03974983
13	0x3d992f36	0.07479708
14	0x3d87bfd1	0.06628383
15	0x3bc33466	0.005957174
16	0x3d9b1eaf	0.07574212
17	0xbc90e845	-0.01768888
18	0xbcdad2b8	-0.026711807
19	0x3d02939e	0.03187906
20	0xbb6ada00	-0.0035835505
21	0xbc4faca3	-0.012675437
22	0x3d22099b	0.03955994
23	0xbcdc695b	-0.026905706
24	0x3dd2c36e	0.102911815
25	0x3d5c67dc	0.053809986
26	0x3c93d8cd	0.018047715
27	0x3d8f6ae8	0.070028126
28	0xbd58bc1e	-0.052913778
29	0xbc6c7e0d	-0.01443435
30	0xbd1c9ae7	-0.038233664
31	0x3d4ad8d2	0.049523182
32	0x3db9a7e2	0.09065224
33	0x3e07e813	0.13272123
34	0x3dfd4c47	0.123680644
35	0x3d26a00e	0.040679984
36	0xbd13c94f	-0.036080655
37	0xbb4d0f87	-0.0031289773
38	0xbd75d6a0	-0.060019135
39	0xbdcc0ce5	-0.09963397
40	0xbb73c0c3	-0.0037193752
41	0x3e2d2494	0.16908485
42	0x3d9e6d0f	0.07735645
43	0x3d6c9ae7	0.057764914
44	0x3d8381a2	0.0642121
45	0xbdc1f83d	-0.09471176
46	0xbddc894a	-0.10768373
47	0x3da29366	0.0793827
48	0x3e03e2ed	0.12879534
49	0x3da9e41f	0.08295464
50	0xbda6aa52	-0.08137955
51	0x3e081d5e	0.13292453
52	0x3d029450	0.031879723
53	0xbd5b2eb3	-0.053511333
54	0xbd8bba5c	-0.068226546
55	0x3e104313	0.14088087
56	0x3d667508	0.056263953
57	0xbdd79439	-0.10526318
58	0x3de6b400	0.11264801
59	0x3dcaa921	0.0989554
60	0xbe0a4cfc	-0.1350593
61	0x3e133c7d	0.14378543
62	0x3ddec88c	0.10878095
63	0x3e09e796	0.1346725

weight f4 [1, 64]
0	0xbe18239a	-0.14857331
1	0xbd34955d	-0.044087756
2	0x3bdb36e8	0.006689895
3	0x3d8bdf8f	0.0682975
4	0x3e056f85	0.13030823
5	0x3d2270ca	0.039658345
6	0xba4ed98c	-0.00078906934
7	0x3d3adfa9	0.045623455
8	0xbdc999a7	-0.0984376
9	0xbb80fe94	-0.003936598
10	0xbdfdfc86	-0.12401681
11	0x3dbfae3c	0.093594044
12	0xbe4624db	-0.19349997
13	0x3d53550f	0.05159479
14	0xbe17eea5	-0.1483713
15	0xbe807e67	-0.25096437
16	0x3e097e2a	0.13427034
17	0x3d803d9c	0.06261751
18	0x3dc41402	0.09574129
19	0xbe2a4d39	-0.1663102
20	0x3c9c2687	0.01906134
21	0xbdd6f882	-0.10496618
22	0xbe430418	-0.1904453
23	0xbe5003bc	-0.20313925
24	0xbe186bf8	-0.14884937
25	0x3d63adfc	0.055585846
26	0xbe26fb17	-0.1630672
27	0xbe5c74db	-0.21528952
28	0x3d649877	0.055809464
29	0xbe1e617a	-0.15466872
30	0x3b262b82	0.0025355523
31	0x3d6d9ffc	0.0580139
32	0x3df24e7a	0.118313745
33	0xbe37029e	-0.17872092
34	0xbe2f4ed1	-0.1711991
35	0x3ceb5b95	0.028730193
36	0xbe453376	-0.19257912
37	0x3dc7d797	0.097579174
38	0x3d7cdeb0	0.06173581
39	0x3d059728	0.032614857
40	0xbe460c32	-0.1934059
41	0xbe0bd1f4	-0.1365431
42	0xbe38499b	-0.17996828
43	0xbe2393ba	-0.15974322
44	0x3daafadb	0.08348628
45	0x3d990e13	0.074733876
46	0x3dce9588	0.100871146
47	0x3d369131	0.04457206
48	0xbe761c8e	-0.2403433
49	0xbe277d4a	-0.16356388
50	0xbe2e87f0	-0.17044044
51	0xbe7034c5	-0.2345763
52	0xbe813625	-0.25236621
53	0xbb9d40d0	-0.004798986
54	0xbe56e966	-0.20987472
55	0xbe397242	-0.18109992
56	0x3dfc818a	0.12329395
57	0xbe3cd056	-0.18438849
58	0xbe19f6ac	-0.15035504
59	0xbe3d9058	-0.18512094
60	0xbb1a99ff	-0.0023590324
61	0xbe2dc7cd	-0.16970749
62	0xbe0ff2e1	-0.14057495
63	0xbe05ad18	-0.13054311
