models/l1_comparison/model_l1_4.pt (torch, 38847 bytes, 7 tensors)

weight f4 [64, 4]
0.4154003 1.3159949 1.4165666 0.26686165 0.1340924 -0.4930261 -0.51255834 0.03865784
-0.3688936 1.132188 2.0574756 0.2100256 0.3431753 -0.56693006 0.09422856 -0.17824447
0.053883236 1.6233041 0.22656514 0.00074141636 0.32668698 1.6029986 0.92645687 0.27048734
0.93648547 -0.3583442 -2.0609329 0.4969274 0.9572479 -1.0811707 0.7779413 -0.21812296
0.27681434 -0.5385841 0.13129744 -0.06630767 0.59588563 -1.2564327 -1.4183946 0.3688346
-0.364233 2.0005462 -0.9112951 -0.43711075 0.09655478 -1.8665814 0.9277589 -0.54495656
-0.12917414 0.025830915 -0.27690813 0.5968035 -1.2149165 -0.26019153 1.8663107 0.61729354
-1.1764228 -0.16373011 -0.6790756 0.5550308 -0.3765111 -0.54942536 -0.061328776 -0.6433032
-0.32717627 0.28852648 -1.5323817 -0.79104203 -0.3639251 -1.0152304 -1.6637198 0.3532711
-0.21784477 -1.4521974 -0.66573775 0.20938115 0.78116995 -1.8026754 1.0203302 0.04718785
-0.22491342 -0.005291534 -0.2038814 0.0048150043 0.29871577 0.6480307 0.6169023 -0.5218499
-0.44171882 0.29697165 -0.14537077 0.050078623 0.9621389 1.1789255 -0.82142895 -0.48335356
-0.34501854 -0.9440018 -0.6687851 -0.031004852 0.24506599 -1.509699 0.3152615 -0.47793633
-0.82137924 -1.4691143 -0.10179764 -0.3190687 0.90737534 0.26281637 -0.086269855 -0.5679631
0.32956782 0.1279712 -0.53572917 -0.5329613 0.297989 -1.6628472 1.6107674 -0.6594108
-0.114123434 1.9144611 0.49895483 0.22374816 0.41294226 1.0857302 1.86307 0.4440912
-0.37027267 -1.2430426 -0.49524254 -0.24549776 -0.24206099 -1.9771438 0.011090486 0.09721826
-0.10746794 0.9877864 -0.6349239 -0.1814568 -0.6735245 -1.4566809 1.0507679 0.0012188432
0.74675196 0.068530604 0.017046846 0.1204447 0.18626693 0.76182026 0.3441921 0.0006461643
-0.76355714 1.7058588 0.1636057 -0.36664543 -0.28161907 -1.2676492 -0.40553653 -0.033291124
-0.4737829 1.1021082 -0.042324252 -0.10224052 0.4502547 1.1500092 0.44771096 0.02864661
-0.12610993 -1.6552327 -1.7300695 0.37161088 0.2970191 -1.7806988 -0.362575 0.27386382
-0.20684743 0.9329096 0.7213921 0.16128471 -0.87089443 0.8437896 0.47408003 0.010589365
0.34573638 1.5650222 0.61623174 0.3096379 0.62968796 0.7701899 1.5383964 -0.2873407
-0.084672466 -1.1981932 -1.5938542 0.34580156 -0.7765421 -1.6049081 0.057336126 -0.36893883
-0.19887595 0.089279875 -0.29251423 0.10267399 -0.79208046 -0.4873902 0.025462264 -0.4275647
0.8544852 1.6556327 -0.24820308 -0.3863961 -0.9288214 -1.1387143 0.31853417 -0.45309454
0.07120327 0.7802698 0.32597235 0.013039814 0.108181894 -0.17019238 -0.08237234 -0.0069334763
1.1795315 0.192663 0.8507288 0.611995 0.047557477 0.29736802 0.99963224 -0.6254699
0.57033277 1.6116164 0.7513699 -0.25515494 -0.8749444 -1.2176908 -1.6384318 0.43338063
0.05952037 -1.3928663 -0.9456093 0.27072367 0.46932888 1.0149958 -1.1929295 -0.5767295
0.71932757 1.2998264 1.4758862 0.5281477 0.10784296 -0.009975503 -0.11650651 -0.11577105
00000000: 59af d43e 8572 a83f 0e52 b53f 17a2 883e
00000010: 854f 093e eb6d fcbe 0637 03bf af57 1e3d
00000020: 9fdf bcbe 89eb 903f aead 0340 f310 573e
00000030: acb4 af3e 5422 11bf e7fa c03d b885 36be
00000040: abb4 5c3d 6ec8 cf3f b100 683e 9c5b 423a
00000050: 8443 a73e 0f2f cd3f 472c 6d3f 517d 8a3e
00000060: 83bd 6f3f e478 b7be 53e6 03c0 456d fe3e
00000070: 330e 753f cd63 8abf 2927 473f a05b 5fbe
00000080: 9cba 8d3e a6e0 09bf d672 063e 51cc 87bd
00000090: f68b 183f c9d2 a0bf f48d b5bf e4d7 bc3e
000000a0: bf7c babe f308 0040 a34a 69bf fbcc dfbe
000000b0: 83be c53d 24ec eebf 9b81 6d3f 4682 0bbf
000000c0: 3a46 04be 5b9b d33c e7c6 8dbe 1dc8 183f
000000d0: 6282 9bbf d337 85be 45e3 ee3f f306 1e3f
000000e0: 0695 96bf dea8 27be e6d7 2dbf 8016 0e3f
000000f0: 10c6 c0be 24a7 0cbf e233 7bbd 85af 24bf
00000100: a683 a7be beb9 933e 1525 c4bf bb81 4abf
00000110: 6454 babe 12f3 81bf c5f4 d4bf f3df b43e
00000120: b312 5fbe 9be1 b9bf ca6d 2abf 0368 563e
00000130: c1fa 473f 11be e6bf 2e9a 823f 0c48 413d
00000140: b44f 66be 9b64 adbb 49c6 50be 2fc7 9d3b
00000150: 46f1 983e 57e5 253f 4fed 1d3f f497 05bf
00000160: f828 e2be ab0c 983e 13dc 14be 3e1f 4d3d
00000170: bc4e 763f 08e7 963f 2b49 52bf 1e7a f7be
00000180: 45a6 b0be 1aaa 71bf 8035 2bbf e3fd fdbc
00000190: 94f2 7a3e d13d c1bf f569 a13e 12b4 f4be
000001a0: e945 52bf f00b bcbf 487b d0bd f95c a3be
000001b0: c049 683f de8f 863e 40ae b0bd 0866 11bf
000001c0: 1dbd a83e e20a 033e 8c25 09bf 2770 08bf
000001d0: 0492 983e 2dd8 d4bf a02d ce3f 25cf 28bf
000001e0: 8cb9 e9bd 100d f53f 0277 ff3e 3d1e 653e
000001f0: 2b6d d33e 35f9 8a3f 1479 ee3f ec5f e33e
00000200: 6194 bdbe 051c 9fbf 6e90 fdbe c463 7bbe
00000210: d6de 77be 0c13 fdbf dfb4 353c 5e1a c73d
00000220: 2718 dcbd 92df 7c3f 5f8a 22bf d0cf 39be
00000230: 1a6c 2cbf 8574 babf 907f 863f 97c1 9f3a
00000240: 232b 3f3f c659 8c3d d4a5 8b3c b6ab f63d
00000250: c2bc 3e3e a706 433f f239 b03e 5a63 293a
00000260: 7b78 43bf 9559 da3f 4188 273e f3b8 bbbe
00000270: 6030 90be 5442 a2bf 7ca2 cfbe 465c 08bd
00000280: ac93 f2be e211 8d3f 325c 2dbd 7a63 d1bd
00000290: c987 e63e 8033 933f 5f3a e53e 4cac ea3c
000002a0: f622 01be aade d3bf eb72 ddbf c843 be3e
000002b0: e312 983e f0ed e3bf 6ea3 b9be e137 8c3e
000002c0: d0cf 53be 2ad3 6e3f 27ad 383f d227 253e
000002d0: f0f2 5ebf 9802 583f 9eba f23e 047f 2d3c
000002e0: 5c04 b13e a652 c83f 5dc1 1d3f dc88 9e3e
000002f0: 3b33 213f 2a2b 453f 2cea c43f 521e 93be
00000300: c268 adbd 655e 99bf 6a03 ccbf e70c b13e
00000310: 77cb 46bf a16d cdbf 49d9 6a3d 8de5 bcbe
00000320: 23a6 4bbe 5ed8 b63d 6dc4 95be be46 d23d
00000330: c9c5 4abf 358b f9be 3d96 d03c c3e9 dabe
00000340: 8bbf 5a3f c6eb d33f f328 7ebe b6d5 c5be
00000350: 3dc7 6dbf 64c1 91bf e916 a33e 02fc e7be
00000360: 05d3 913d c3bf 473f d9e5 a63e f2a4 553c
00000370: 788e dd3d e946 2ebe d4b2 a8bd 3732 e3bb
00000380: e3fa 963f 7349 453e 5dc9 593f b4ab 1c3f
00000390: a1cb 423d 9f40 983e e6e7 7f3f cc1e 20bf
000003a0: 5401 123f 7249 ce3f c759 403f aba3 82be
000003b0: 5bfc 5fbf 4bdd 9bbf 22b8 d1bf 11e4 dd3e
000003c0: a2cb 733d 7149 b2bf 7313 72bf 4b9c 8a3e
000003d0: e04b f03e 62eb 813f eab1 98bf 8ba4 13bf
000003e0: da25 383f b660 a63f d7e9 bc3f b034 073f
000003f0: c5dc dc3d 4b70 23bc f79a eebd 5f19 edbd

bias f4 [64]
-0.048293687 -0.13393871 0.71297175 -0.027525421 0.69182456 0.2107848 -0.051346425 0.12140433
0.32899618 0.38993964 -0.2455301 0.27836555 -0.12778825 -0.31699613 -0.23714271 -0.78342074
-0.256 0.23023677 0.60640097 0.33570224 0.18938623 -0.62624663 0.15440637 -0.31969833
0.4263722 0.7857956 0.39604512 -0.092942 0.40389454 -0.06014181 0.028756365 -0.04249784
0.38163042 0.39273953 0.20471062 -0.42915896 0.22979279 -0.16724126 0.36386093 -0.025769643
0.2255672 0.6298152 0.08721064 0.12559417 -0.21327406 0.47077817 0.09600234 0.17900632
-0.2384035 0.40546638 0.39607248 0.19370021 0.36004055 -0.26415604 0.41534063 -0.02601003
-0.34744602 -0.76898885 -0.047736976 -0.08600062 0.485287 -0.54992175 -0.37884453 -0.1622681
00000000: 9acf 45bd 3b27 09be 5185 363f fe7c e1bc
00000010: 6a1b 313f f8d7 573e a150 52bd d5a2 f83d
00000020: 3072 a83e 2ba6 c73e 3e6c 7bbe ee85 8e3e
00000030: ecda 02be 514d a2be 8ad5 72be 438e 48bf
00000040: 6f12 83be 30c3 6b3e 183d 1b3f 2ae1 ab3e
00000050: 77ee 413e b351 20bf b41c 1e3e 80af a3be
00000060: 754d da3e e729 493f 6dc6 ca3e 6058 bebd
00000070: 44cb ce3e 4257 76bd 7892 eb3c 3712 2ebd
00000080: 1065 c33e 2815 c93e a99f 513e b9ba dbbe
00000090: cd4e 6b3e 4b41 2bbe fb4b ba3e dc1a d3bc
000000a0: 17fb 663e 923b 213f 7e9b b23d c29b 003e
000000b0: 8464 5abe d609 f13e e09c c43d 6f4d 373e
000000c0: 0c20 74be 4a99 cf3e 03ca ca3e 5959 463e
000000d0: 3c57 b83e 763f 87be 87a7 d43e fd12 d5bc
000000e0: 72e4 b1be 74dc 44bf d987 43bd 1821 b0bd
000000f0: 8a77 f83e acc7 0cbf e9f7 c1be 9c29 26be

weight f4 [64, 64]
-0.69022137 0.081814125 -0.51827765 0.032172725 -0.37519637 -0.8783393 -0.0044970973 -0.0058822567
0.119033575 0.3198021 -0.0112865 0.27542722 -0.11099117 -0.06105428 -0.02323379 0.26774132
-0.012090472 0.28706348 0.25590312 0.20375037 -0.04670788 -0.046961296 -0.17015786 -0.12197598
0.08649712 0.13137531 0.29405302 0.043378223 -0.13651873 0.23554602 -0.7446325 -0.5058435
0.23348233 0.51411474 -0.19629534 0.32660007 -0.07096305 -0.28420007 -0.2756454 0.08960922
-0.24351682 -0.42208984 0.61042655 0.48447365 -0.43870965 -0.2913316 -0.7114032 -0.11008139
0.3715723 0.29589942 -0.059959333 0.16278791 -0.45368284 0.41931114 -0.31651896 -0.084086835
-0.28393054 0.16528323 -0.42200992 0.31120604 0.39226207 -0.100886494 -0.7877065 -0.10514269
0.12977375 0.08532752 -0.22389098 0.04977877 -0.15939727 0.049320366 0.12253804 0.002613427
-0.04115586 0.025548322 0.10975768 -0.058764778 0.07725406 0.03912827 -0.050211467 0.009408167
0.172615 0.034904756 -0.115261905 0.14750704 -0.23093747 0.13067542 0.0005313192 0.048363853
-0.17544122 -0.07590579 0.11671159 0.051233463 0.07474326 -0.032267835 -0.07909883 0.024818148
0.023776889 0.019050943 -0.08206462 -0.054999128 0.101733014 -0.1277749 -0.0699445 -0.024719937
-0.13673867 -0.062560625 0.2053603 0.022735318 -0.019484302 -0.082359396 0.035394054 0.026679981
-0.024193872 0.18236142 -0.18754242 0.07099863 0.09811204 0.19093321 -0.08374714 -0.1895332
0.06613343 0.018528335 0.22437936 0.13441044 -0.06849307 0.051824734 -0.041478086 0.05652918
-0.2851219 0.05929774 -0.540281 -0.04460353 -0.10236543 -0.1753323 0.39520633 -0.09631405
-0.21851423 0.2001385 0.13319968 -0.11652069 -0.11636136 -0.45280567 -0.17219561 0.20262563
0.3100059 0.2081524 0.07320137 -0.24708122 0.0060438374 0.11297569 -0.068705425 0.01322182
0.11068596 -0.021044247 -0.003106438 0.06832704 0.058242697 -0.058196805 -0.12490219 -0.21558963
0.07313173 -0.13504416 0.121407986 -0.32661778 -0.1892531 -0.25494617 0.037364 -0.0048580673
0.12722668 -0.20447117 0.32588193 0.062934145 -0.29036105 -0.09628481 -0.037552163 -0.17675576
0.23750253 0.033069808 -0.0678227 -0.045935255 -0.026330566 0.14346679 -0.19059229 -0.14888994
-0.04420449 -0.013700506 -0.067966685 0.22837923 0.17097516 0.19479503 -0.19999649 -0.075817876
-0.15168852 -0.040205665 -0.062056657 0.017445935 0.15431683 -0.00078673044 0.021659581 -0.00025023049
0.055012446 0.019385632 -0.17875747 0.032638587 0.14528142 0.037548393 0.1009862 0.15190504
0.010320009 -0.11119809 0.07127512 0.022315573 -0.016802026 0.03788682 0.1263188 -0.17526707
-0.042271163 -0.01805566 -0.086719714 -0.019677283 -0.04162219 -0.10961702 0.009946761 0.012614847
-0.044784613 -0.018336002 0.0396328 0.0006659301 0.12942046 0.0122156115 -0.11190132 0.008390439
0.11672436 0.20186448 -0.048600014 -0.09215649 0.05783826 0.19567673 -0.10656674 0.038048826
0.031770848 -0.07910161 0.06500764 0.029428624 -0.14426875 -0.13787478 0.2109599 0.12839507
-0.13860914 0.13457347 -0.23365489 -0.14929979 0.05566498 0.046720553 -0.1255768 -0.044150192
00000000: 59b2 30bf 2a8e a73d d8ad 04bf 8cc7 033d
00000010: bd19 c0be d8da 60bf 635c 93bb f2bf c0bb
00000020: e0c7 f33d 1abd a33e 03eb 38bc cc04 8d3e
00000030: 574f e3bd 0d14 7abd ca54 bebc 6415 893e
00000040: 1d17 46bc fcf9 923e bc05 833e f0a3 503e
00000050: c350 3fbd 7d5a 40bd dd3d 2ebe 8bce f9bd
00000060: 6725 b13d 4087 063e 1e8e 963e 5dad 313d
00000070: 91cb 0bbe fa32 713e 3ca0 3ebf f67e 01bf
00000080: fe15 6f3e 069d 033f a501 49be 2038 a73e
00000090: 1355 91bd ac82 91be 6521 8dbe 0a85 b73d
000000a0: 795c 79be 291c d8be ea44 1c3f ee0c f83e
000000b0: 8d9e e0be 6a29 95be 851e 36bf 5a72 e1bd
000000c0: b93e be3e 2180 973e eb97 75bd e0b1 263e
000000d0: 1e49 e8be f3af d63e c60e a2be b835 acbd
000000e0: 585f 91be 0240 293e af11 d8be 6656 9f3e
000000f0: 93d6 c83e 949d cebd 22a7 49bf 0d55 d7bd
00000100: 69e3 043e 32c0 ae3d ad43 65be d3e4 4b3d
00000110: 0a39 23be 2704 4a3d 39f5 fa3d 0746 2b3b
00000120: 0c93 28bd b74a d13c a2c8 e03d 56b3 70bd
00000130: 6037 9e3d f744 203d 8aaa 4dbd b624 1a3c
00000140: fdc1 303e 4af8 0e3d 6f0e ecbd 160c 173e
00000150: df7a 6cbe c7cf 053e 3a48 0b3a 2d19 463d
00000160: dda6 33be 7f74 9bbd 7c06 ef3d 2eda 513d
00000170: ff12 993d 472b 04bd 91fe a1bd 6e4f cb3c
00000180: c0c7 c23c b910 9c3c 7f11 a8bd c446 61bd
00000190: 6659 d03d 6cd7 02be 103f 8fbd 7781 cabc
000001a0: 3905 0cbe c91f 80bd f849 523e 6b3f ba3c
000001b0: 8b9d 9fbc 0bac a8bd 5bf9 103d fa8f da3c
000001c0: 3a32 c6bc f4bc 3a3e 1f0b 40be bb67 913d
000001d0: f7ee c83d ff83 433e 9f83 abbd fe14 42be
000001e0: f770 873d bcc8 973c b4c3 653e e4a2 093e
000001f0: 1846 8cbd 2c46 543d ede4 29bd 248b 673d
00000200: 7ffb 91be 30e2 723d db4f 0abf 31b2 36bd
00000210: f7a4 d1bd 4f8a 33be 7c58 ca3e 4d40 c5bd
00000220: 32c2 5fbe 1bf1 4c3e 7f65 083e 66a2 eebd
00000230: dd4e eebd 25d6 e7be 0c54 30be 187d 4f3e
00000240: 18b9 9e3e e725 553e 9aea 953d dc02 7dbe
00000250: 620b c63b cc5f e73d 6eb5 8cbd 55a0 583c
00000260: 52af e23d fc64 acbc 6295 4bbb 0cef 8b3d
00000270: e58f 6e3d c65f 6ebd b8cc ffbd 87c3 5cbe
00000280: 17c6 953d 0449 0abe c0a4 f83d 723a a7be
00000290: 91cb 41be 4e88 82be fe0a 193d 6c30 9fbb
000002a0: b647 023e e460 51be ffd9 a63e 9ee3 803d
000002b0: 34aa 94be f830 c5bd 4cd0 19bd 76ff 34be
000002c0: dd33 733e 3574 073d a1e6 8abd 9b26 3cbd
000002d0: 33b3 d7bc f5e8 123e a02a 43be 9b76 18be
000002e0: c40f 35bd 1678 60bc 1e32 8bbd 3fdc 693e
000002f0: 1d14 2f3e 5978 473e e1cb 4cbe 6746 9bbd
00000300: 3c54 1bbe b2ae 24bd 1f2f 7ebd c7ea 8e3c
00000310: 3b05 1e3e 963c 4eba 6f6f b13c 5e31 83b9
00000320: bb54 613d 9ece 9e3c 330c 37be 0ab0 053d
00000330: a7c4 143e 58cc 193d dad1 ce3d ff8c 1b3e
00000340: 4115 293c d3bb e3bd b1f8 913d 26cf b63c
00000350: 67a4 89bc 362f 1b3d b759 013e 3679 33be
00000360: 8724 2dbd 77e9 93bc 1b9a b1bd 4132 a1bc
00000370: 087c 2abd e37e e0bd bdf7 223c 81ae 4e3c
00000380: 1270 37bd 6235 96bc 0156 223d d091 2e3a
00000390: cc86 043e fd23 483c 852c e5bd 0d78 093c
000003a0: 2e0d ef3d 90b5 4e3e cf10 47bd 8bbc bcbd
000003b0: d0e7 6c3d 7b5f 483e aa3f dabd 16d9 1b3d
000003c0: 2622 023d 0600 a2bd ba22 853d 4c14 f13c
000003d0: 30bb 13be 0c2f 0dbe df05 583e ff79 033e
000003e0: 8eef 0dbe a1cd 093e 3a43 6fbe 0be2 18be
000003f0: f600 643d 0d5e 3f3d 3497 00be d5d6 34bd

bias f4 [64]
-0.101180494 0.017310292 -0.16483796 0.20548408 -0.20973516 -0.08708917 0.05361788 -0.10650697
-0.079120606 0.04588717 0.20783634 0.13115217 0.20299076 -0.11845761 0.23218158 -0.12656187
-0.096405216 -0.1072918 0.12994456 0.07831712 0.13776453 0.24621527 -0.07770794 0.053411067
-0.08441866 -0.0646351 -0.19326594 -0.04754712 0.08150716 0.07571604 -0.06530384 0.28501084
-0.09494027 -0.048043724 -0.008626642 0.15337066 0.0138728265 0.01987586 0.02359995 0.12839442
0.09101421 -0.0005225273 0.032652088 0.04183459 0.23313278 -0.21218097 0.21283287 0.045521915
-0.074111156 -0.19398114 0.13218239 -0.2053263 0.22997743 -0.04897151 0.11110889 0.051843535
0.18504332 -0.15844417 -0.109476484 -0.02502613 0.24518715 -0.035562873 0.089735925 0.22708298
00000000: b837 cfbd 50ce 8d3c 48cb 28be 6b6a 523e
00000010: d0c4 56be cf5b b2bd 6c9e 5b3d 5420 dabd
00000020: fc09 a2bd 2ff4 3b3d 0dd3 543e c14c 063e
00000030: cfdc 4f3e e799 f2bd 02c1 6d3e 6f99 01be
00000040: 1970 c5bd cebb dbbd 3010 053e ba64 a03d
00000050: 2512 0d3e db1f 7c3e 5725 9fbd 90c5 5a3d
00000060: b1e3 acbd 685f 84bd 82e7 45be c5c0 42bd
00000070: 3aed a63d 0311 9b3d 05be 85bd f1ec 913e
00000080: 0b70 c2bd 7fc9 44bd c256 0dbc 330d 1d3e
00000090: da4a 633c b3d2 a23c af54 c13c d479 033e
000000a0: a865 ba3d 37fa 08ba 32be 053d bf5a 2b3d
000000b0: 5cba 6e3e f845 59be dcf0 593e 3075 3a3d
000000c0: 97c7 97bd fea2 46be d25a 073e 0f41 52be
000000d0: 347f 6b3e 5a96 48bd 0f8d e33d e359 543d
000000e0: ff7b 3d3e 303f 22be 3535 e0bd 9903 cdbc
000000f0: 5712 7b3e 60aa 11bd 78c7 b73d 7188 683e

weight f4 [64, 64]
-0.18030751 0.122996695 -0.19532661 0.061437383 -0.26553756 -0.0112543665 -0.19137393 0.1345494
0.051327057 -0.03288531 0.18428285 0.0021301755 0.08475567 0.10919897 0.08088637 0.054274462
-0.15462725 0.106864125 -0.08191715 0.0055607455 0.088542394 0.20261922 0.09925943 0.16208082
-0.047363285 -0.08166544 -0.08176887 -0.106239565 0.09270886 0.21874464 0.071657754 0.0356035
-0.15189886 0.03720216 0.20467816 0.1361541 -0.029726582 0.07826411 -0.089649126 0.06440262
0.06826935 0.07233235 0.12318686 0.10010867 0.19211526 -0.2834729 0.14393665 0.18859507
-0.33581 0.028450066 0.158561 0.006768458 0.045301337 -0.037471503 0.0037571352 -0.15952
0.22902276 -0.07343414 -0.021293035 -0.07225507 0.073207624 -0.35463142 -0.32046777 0.31608853
-0.6441184 -0.082777224 -0.011566658 0.3295755 -0.43437833 0.08701411 0.04528448 0.09969266
-0.08781516 0.18776059 0.1542935 0.060431194 0.28521147 -0.09594827 0.23241046 -0.13684228
0.05386436 -0.104171626 0.23321715 0.1508486 0.23823683 0.28223813 0.101511106 0.1418957
0.027075132 0.069284305 -0.038506787 0.01361949 0.13220282 0.20920125 -0.031275634 0.14331315
-0.061206535 -0.016322425 0.18221787 0.2462197 0.12193392 0.14492841 0.04993377 0.3271844
0.29122686 0.3980763 0.14217211 0.20909904 0.32174832 -0.391446 0.2458662 0.2452516
-0.356434 -0.15727678 0.23249921 0.039797336 0.28976977 0.0035895044 0.20863219 -0.75564444
0.27959457 -0.16549295 0.06065965 -0.13400523 0.23119894 -0.38510367 -0.50138885 0.17932472
0.17969127 0.0007418947 0.16420601 0.08107516 0.07472325 0.119051106 -0.0848704 -0.039410066
0.0108616 0.068211414 0.01916343 0.089748725 -0.10589184 0.1462914 0.04763194 0.009767142
0.17479348 0.0048945155 0.0027693775 0.13345836 0.018511165 -0.08021286 0.06410931 -0.108769886
0.11849295 0.10347287 0.071178034 0.17877807 0.09859143 -0.07152451 0.025069937 0.090658866
0.14803602 0.09861667 0.06736299 0.020108681 0.04335993 -0.06370834 -0.023617357 -0.06737463
0.05593939 -0.13533981 0.00362964 -0.033498127 0.15401307 0.14313594 -0.020649187 -0.08531042
0.13229693 0.06563374 -0.03986484 0.062480833 -0.03160772 0.124241374 0.06476347 0.0015410447
-0.05469666 0.1650823 -0.011144654 0.0060042855 -0.099439085 -0.055337828 0.11598666 -0.0022476725
-0.11718929 0.017383534 -0.13909586 0.122986 -0.30057535 -0.17168763 -0.21020658 0.109691985
0.055521335 -0.0033611774 0.27368543 0.07302055 0.22117768 0.03811192 0.02396594 0.1126315
-0.27623448 -0.029433282 -0.08666539 0.0439372 0.05174844 0.04530628 -0.094938315 0.17160985
0.10539512 0.02750861 -0.0073522534 -0.15989083 0.1650249 0.098581664 0.02086448 0.004833285
-0.05761537 0.008982908 0.12973414 0.10167007 -0.0039676726 -0.029720388 -0.07483882 0.19131275
0.0023682248 0.052148554 0.19913253 0.065775424 0.114861466 -0.25182456 -0.049318437 0.13958299
-0.23154087 -0.07641612 0.1664776 0.015805349 -0.07952473 -0.055018142 -0.0305788 -0.119272366
0.15906261 -0.13730462 0.07009411 -0.011438018 0.14715302 -0.35081345 -0.34512913 0.09030053
00000000: 88a2 38be b1e5 fb3d b303 48be c4a5 7b3d
00000010: 8af4 87be 3c64 38bc 87f7 43be 51c7 093e
00000020: 523c 523d bfb2 06bd a5b4 3c3e 6a9a 0b3b
00000030: 6194 ad3d b6a3 df3d c1a7 a53d e64e 5e3d
00000040: 9b56 1ebe 94db da3d 2ec4 a7bd ea36 b63b
00000050: b755 b53d 6a7b 4f3e 8748 cb3d 84f8 253e
00000060: 0100 42bd 3640 a7bd 7076 a7bd 2194 d9bd
00000070: 25de bd3d 98fe 5f3e 4dc1 923d fad4 113d
00000080: 608b 1bbe 4b61 183d 2797 513e fb6b 0b3e
00000090: 2985 f3bc ef48 a03d f699 b7bd 85e5 833d
000000a0: cdd0 8b3d fc22 943d 6449 fc3d c605 cd3d
000000b0: ddb9 443e 5c23 91be 2164 133e 111f 413e
000000c0: 4aef abbe 1d10 e93c d15d 223e f1c9 dd3b
000000d0: e58d 393d b87b 19bd 453a 763b 3659 23be
000000e0: f184 6a3e a364 96bd bb6e aebc 77fa 93bd
000000f0: e1ed 953d 4092 b5be 5a14 a4be 5bd6 a13e
00000100: f2e4 24bf 1b87 a9bd 1482 3dbc 1fbe a83e
00000110: d666 debe 7434 b23d 387c 393d aa2b cc3d
00000120: 6fd8 b3bd 5044 403e 1eff 1d3e b386 773d
00000130: 3d07 923e 8780 c4bd 02fd 6d3e 6220 0cbe
00000140: e0a0 5c3d ef57 d5bd 7ad0 6e3e 0e78 1a3e
00000150: 5bf4 733e 8481 903e 0ee5 cf3d 1b4d 113e
00000160: abcc dd3c eee4 8d3d 4bb9 1dbd 4824 5f3c
00000170: 2d60 073e da38 563e e11a 00bd afc0 123e
00000180: b4b3 7abd 9bb6 85bc 5297 3a3e 0421 7c3e
00000190: 7eb8 f93d 1d68 143e 5a87 4c3d b784 a73e
000001a0: b01b 953e a8d0 cb3e 9195 113e 0f1e 563e
000001b0: 32bc a43e 9c6b c8be 59c4 7b3e 3c23 7b3e
000001c0: 847e b6be 2a0d 21be 4614 6e3e 8802 233d
000001d0: b45c 943e e43d 6b3b ada3 553e ea71 41bf
000001e0: 0527 8f3e fc76 29be 4176 783d ab38 09be
000001f0: 6abf 6c3e 4f2c c5be 055b 00bf e6a0 373e
00000200: fd00 383e b67b 423a 9f25 283e bc0a a63d
00000210: 8108 993d 11d1 f33d 88d0 adbd 736c 21bd
00000220: daf4 313c 6db2 8b3d a0fc 9c3c 2ece b73d
00000230: d2dd d8bd 6acd 153e b619 433d 5d06 203c
00000240: 10fd 323e 2c62 a03b 727e 353b 4fa9 083e
00000250: baa4 973c a446 a4bd be4b 833d bfc2 debd
00000260: 6fac f23d 96e9 d33d cac5 913d 9911 373e
00000270: 4eea c93d 717b 92bd 785f cd3c 5bab b93d
00000280: c196 173e 89f7 c93d 9bf5 893d f6ba a43c
00000290: 2f9a 313d 8579 82bd 3079 c1bc b6fb 89bd
000002a0: b420 653d 8596 0abe 41df 6d3b 5535 09bd
000002b0: 9ab5 1d3e 3a92 123e 7c28 a9bc 3bb7 aebd
000002c0: d978 073e fb6a 863d 5149 23bd e7eb 7f3d
000002d0: 1977 01bd 4372 fe3d b6a2 843d e1fc c93a
000002e0: 9b09 60bd 560b 293e 1198 36bc 99bf c43b
000002f0: b8a6 cbbd eba9 62bd 6a8a ed3d b04d 13bb
00000300: f000 f0bd ea67 8e3c 256f 0ebe 15e0 fb3d
00000310: 03e5 99be e2ce 2fbe 6540 57be 31a6 e03d
00000320: 576a 633d 3347 5cbb 7f20 8c3e cc8b 953d
00000330: 677c 623e 3f1b 1c3d 3854 c43c 58ab e63d
00000340: 9b6e 8dbe 111e f1bc a07d b1bd 7ef7 333d
00000350: 2cf6 533d 1493 393d 056f c2bd 7eba 2f3e
00000360: 66d9 d73d bd59 e13c 2ceb f0bb 6cba 23be
00000370: 4afc 283e 2fe5 c93d fceb aa3c 8960 9e3b
00000380: 18fe 6bbd 0c2d 133c 07d9 043e 6638 d03d
00000390: 4003 82bb 2c78 f3bc 1845 99bd 7de7 433e
000003a0: 3834 1b3b b999 553d 66e9 4b3e 44b5 863d
000003b0: 7d3c eb3d 26ef 80be 2102 4abd d8ee 0e3e
000003c0: 0d19 6dbe 0e80 9cbd 1b79 2a3e 387a 813c
000003d0: dddd a2bd b45a 61bd 6480 fabc 1245 f4bd
000003e0: 4fe1 223e 9599 0cbe 808d 8f3d 8666 3bbc
000003f0: 48af 163e d29d b3be c4b4 b0be 7cef b83d

bias f4 [64]
0.064905934 0.17326266 -0.063876666 0.19063038 -0.06289706 0.06963842 0.17514114 0.07115862
-0.054756045 -0.0023587795 0.14776044 -0.033266295 -0.028396513 0.22462662 0.07121311 -0.02628315
-0.15305951 0.119996354 0.004568584 -0.11977534 -0.110642985 0.17610392 -0.11541619 -0.008462652
-0.056236114 0.020632809 0.038438722 0.12876831 0.10412148 0.27060488 -0.006864122 -0.0016971558
0.04854816 -0.0357598 0.12918843 -0.0029714936 0.033378184 0.09405108 -0.14630711 -0.15398744
0.20680887 -0.165863 -0.06809192 -0.0049912063 0.2332429 0.026455574 0.0018916905 -0.07543804
-0.02811618 -0.015048866 0.21445228 0.09627932 0.13950422 -0.010931445 -0.053435456 0.020082954
-0.04501818 -0.0030599176 0.09876461 0.101514965 0.08840487 -0.006607075 0.04998516 0.10261477
00000000: 67ed 843d c46b 313e c5d1 82bd 9c34 433e
00000010: 2cd0 80bd 979e 8e3d 3358 333e 9cbb 913d
00000020: e047 60bd c195 1abb 834e 173e 3d42 08bd
00000030: ce9f e8bc 8504 663e 2ed8 913d c34f d7bc
00000040: a2bb 1cbe a6c0 f53d 0fb4 953b c64c f5bd
00000050: ca98 e2bd 9654 343e 535f ecbd efa6 0abc
00000060: d757 66bd 2306 a93c ec71 1d3d d7db 033e
00000070: a43d d53d b98c 8a3e 6eec e0bb 1973 deba
00000080: 6fda 463d de78 12bd f949 043e 64bd 42bb
00000090: 90b7 083d da9d c03d 88d1 15be e2ae 1dbe
000000a0: b4c5 533e fed7 29be c773 8bbd 468d a3bb
000000b0: 3ad7 6e3e 5cb9 d83c 9af2 f73a 427f 9abd
000000c0: e753 e6bc 858f 76bc 6199 5b3e 182e c53d
000000d0: 32da 0e3e ce19 33bc 23df 5abd 0285 a43c
000000e0: fc64 38bd e688 48bb 1a45 ca3d 14e7 cf3d
000000f0: 9d0d b53d 2a80 d8bb 3dbd 4c3d b127 d23d

weight f4 [1, 64]
-0.21617481 -0.3635117 0.106712684 -0.21860625 0.11955367 -0.17998283 -0.1584133 -0.21994539
-0.124947876 -0.2434734 -0.18153186 0.18846211 -0.22259793 -0.17972922 -0.3080076 -0.18969996
-0.009508433 -0.31306833 -6.611525e-05 0.17944571 0.10287744 -0.221179 0.046344727 -0.16047193
-0.083609544 -0.07813138 0.10819516 -0.2579955 -0.062055405 -0.9953435 0.08440629 0.076200806
-0.22686824 0.00630173 -0.30921763 0.04890636 0.0052546025 -0.1600648 0.10171952 0.07721845
-0.31755865 0.52339363 0.00085435295 -0.0017653225 -0.3139078 -0.18792574 -0.2950855 0.04482391
0.052465897 0.09118879 -0.28930932 -0.21570444 -0.76093054 -0.06554049 0.031183515 -0.18213396
-0.18160723 -0.22573091 -0.38957748 0.11185788 0.06634119 -0.25706127 0.13017772 0.08563593
00000000: ee5c 5dbe 351e babe 2e8c da3d 51da 5fbe
00000010: 8ed8 f43d 6b4d 38be 1937 22be 5d39 61be
00000020: ace4 ffbd 1751 79be 7de3 39be 36fc 403e
00000030: b6f0 63be f00a 38be 2cb3 9dbe b540 42be
00000040: 42c9 1bbc 7e4a a0be 5ba7 8ab8 9ec0 373e
00000050: 68b1 d23d bf7c 62be f8d3 3d3d c152 24be
00000060: 7b3b abbd 5803 a0bd 6d95 dd3d fc17 84be
00000070: cf2d 7ebd d5ce 7ebf 34dd ac3d 2b0f 9c3d
00000080: 2650 68be be7e ce3b c651 9ebe 0952 483d
00000090: cd2e ac3b 07e8 23be 5352 d03d b524 9e3d
000000a0: 0c97 a2be 20fd 053f a8f6 5f3a 6562 e7ba
000000b0: 86b8 a0be 9b6f 40be 7215 97be 4799 373d
000000c0: 7be6 563d 30c1 ba3d 5a20 94be a0e1 5cbe
000000d0: 58cc 42bf 183a 86bd 9274 ff3c 5381 3abe
000000e0: 3ff7 39be 0126 67be b376 c7be bf15 e53d
000000f0: e4dd 873d 899d 83be 4f4d 053e e461 af3d
