models/l1_comparison/model_l1_1.pt (torch, 38847 bytes, 7 tensors)

weight f4 [64, 4]
000000 f4 b6 d6 3e 9c 9d 64 3f f4 9d 81 3e ad 50 5d 3e
       0.41936457 0.8930299 0.2531582 0.21612807
000010 35 ef 62 3e a9 bd 1b be 20 4c c8 be 02 52 1e 3d
       0.22161563 -0.15209068 -0.3912058 0.038652427
000020 f2 64 89 be 9d ea 00 3f 75 98 02 3f d0 ff 32 3e
       -0.26834828 0.5035799 0.5101388 0.17480397
000030 29 25 d8 3e 2b 1b 4a be c4 da 7b bc 60 3f 6e be
       0.4221585 -0.19736926 -0.015371982 -0.23266363
000040 23 45 d1 3d 39 e4 01 3f cc 4a d2 bc 5b c7 b5 bd
       0.10218265 0.50738865 -0.025670432 -0.08875915
000050 c4 fd da 3e f7 7b 75 3f c4 e3 eb 3d 07 04 51 3e
       0.42771733 0.9589228 0.11518052 0.20411693
000060 4b 2b e7 3e a4 58 16 be 0a 75 db bd b9 8d b7 3e
       0.45150217 -0.14682251 -0.10715683 0.35850313
000070 4e 92 ff 3e f2 62 ba bd 70 f9 69 be a6 f7 90 be
       0.4991631 -0.091009036 -0.22849059 -0.2831394
000080 83 71 a8 3e 0a 1a 78 be 99 f8 4b 3e 2b b3 0b be
       0.32899103 -0.24228683 0.19919051 -0.13642566
000090 ad c1 7a 3e b5 2f d6 be ac 7f 1c be db 4e 6f 3e
       0.24487944 -0.41833273 -0.15283078 0.23369925
0000a0 6f 76 c0 3d c5 a9 72 3f 8d df 48 be 14 3c 96 be
       0.093975894 0.947903 -0.19616528 -0.2934271
0000b0 62 41 3a bd c0 85 24 bf 7b a1 a2 be 3b 9a f6 be
       -0.04547251 -0.64266586 -0.31763825 -0.48164544
0000c0 d5 52 8b be 40 66 e3 3d fb 67 a9 be 56 57 02 3f
       -0.27211633 0.11103487 -0.33087143 0.50914514
0000d0 3e 6b 07 bf f8 28 0c 3e 44 95 bf 3d 94 ad 05 3f
       -0.52898014 0.13687503 0.09354642 0.52217984
0000e0 bf d5 fd be 02 f2 6d 3d 3c 5d df be a4 1e bd 3e
       -0.49577138 0.058092125 -0.4362582 0.3693744
0000f0 87 cd 4f be 03 2e 3e be ce 79 c1 bd 72 07 de be
       -0.20293246 -0.1857224 -0.094470605 -0.43365055
000100 7f 0c 08 bf 9f c4 12 3e 41 dd bc be 56 05 e6 be
       -0.5314407 0.14332817 -0.36887553 -0.44925946
000110 49 6a 89 be 5e d8 a2 be 22 54 2c be 7a ed ce 3e
       -0.26838902 -0.318057 -0.16828969 0.40415555
000120 97 f1 b7 be 35 5f f6 be 87 e2 a6 3d da 01 5f 3e
       -0.35926506 -0.48119512 0.081486754 0.2177805
000130 bd e0 bd 3e 31 c2 d8 be c8 12 be 3e 90 5f 03 be
       0.37085524 -0.42335656 0.37123704 -0.12829423
000140 82 4d 91 be 70 c0 15 3e 74 35 65 be a1 ad 86 bc
       -0.28379446 0.1462419 -0.22383672 -0.016440215
000150 bd c7 76 3e bb 70 9d 3e 97 67 f0 3e 07 6d 05 bf
       0.24099632 0.3075007 0.46954033 -0.5211949
000160 42 63 fb be f5 32 52 3e ac 04 91 be da f5 20 3d
       -0.49099165 0.20527251 -0.28323877 0.039296962
000170 37 57 2d 3f 6e 8b 1f 3f fa a2 ad be 22 88 ce be
       0.67711204 0.6232213 -0.33913404 -0.40338236
000180 11 00 0a bf dd c0 c5 be 30 82 77 be 58 9b 0e bd
       -0.5390635 -0.38623706 -0.24170756 -0.034816116
000190 9a 99 1d 3e ac 13 c1 be 26 b7 dd be 90 6d e7 be
       0.15390626 -0.3771032 -0.43303794 -0.45200777
0001a0 4f 60 0f bf 02 79 36 bf 1a 51 bb be 8d e4 bb be
       -0.5600633 -0.71278393 -0.36585313 -0.36697808
0001b0 69 f9 1c 3f 77 20 f9 3d d0 e8 88 be a6 6b e5 be
       0.6131807 0.12164395 -0.26740122 -0.44808692
0001c0 71 b0 f0 3e 67 eb 38 bc f8 dd 99 be f0 e7 fd be
       0.47009614 -0.011286593 -0.3005216 -0.49591017
0001d0 29 40 b3 3d 52 27 13 bf 85 73 79 be 51 89 f0 be
       0.08752472 -0.57481873 -0.24360473 -0.46979764
0001e0 e5 8c d9 3d 4f d5 96 3f 4e 8a ab bd 26 65 0e 3e
       0.106225766 1.1783847 -0.08375989 0.13905773
0001f0 41 f2 f4 3e 38 f9 bc 3e 49 a3 ba 3e ca 3a 6f 3e
       0.47841075 0.3690889 0.36452702 0.2336227
000200 32 2b 9a be 46 6f ac be 4a 31 03 bf 53 e6 b3 be
       -0.3011108 -0.33678645 -0.51247084 -0.3513666
000210 67 d8 a9 be a3 99 9e bf 14 89 97 bd 2d 32 83 3d
       -0.33172914 -1.2390636 -0.073991925 0.06406055
000220 f2 d8 8d be dc 67 ab 3e 3d 0a 77 be cd e3 46 be
       -0.2770458 0.33477676 -0.24125 -0.19422837
000230 5f 01 47 bf 32 fd 4b bf 07 2e bf 3e 42 7b 2b 3d
       -0.7773647 -0.7968322 0.37339804 0.041865595
000240 48 e1 23 3f 36 4b 6b 3d 5a 52 19 3e 23 4c 34 3e
       0.64015627 0.057444774 0.14972821 0.17607169
000250 bc 6e 7c 3e 95 71 47 3e ff 97 fd 3e 4f 72 b6 bd
       0.24651617 0.19476922 0.49530026 -0.089085214
000260 57 54 b2 be 7f 59 09 3f f5 12 6c be ee 1b 14 be
       -0.3482997 0.53652185 -0.23054107 -0.1446378
000270 44 d9 9c be 24 bf ca be bb 34 8a be 00 23 28 be
       -0.3063451 -0.39598954 -0.26993355 -0.16419601
000280 49 86 f8 be c2 19 c2 3e b0 23 99 bd 05 43 30 be
       -0.4853995 0.37910277 -0.0747751 -0.17213066
000290 1d a7 02 3f 53 94 c1 3e a2 03 55 3e 8c af 9f 3d
       0.51036245 0.37808475 0.20802167 0.07797155
0002a0 08 1f 8d be 2a 92 8d bf ce ab 1c bf a6 ed ac 3e
       -0.27562737 -1.1060231 -0.61199653 0.3377506
0002b0 2b 28 ef bd d0 48 4e bf bd 9a 05 bd 1a a7 ed 3d
       -0.11677583 -0.80579853 -0.032618273 0.11604138
0002c0 2e d2 68 be ea 51 c3 3e ea b3 0a be 6a 66 24 3e
       -0.22736427 0.38148433 -0.13545194 0.16054693
0002d0 2a 0b 06 bf 7e c9 3f 3e 0c e3 a1 3e 5e c0 f6 bd
       -0.52360785 0.18729207 0.31618536 -0.1204841
0002e0 83 84 da 3e ab 28 76 3f 67 81 23 be 50 c9 7c 3e
       0.42679223 0.96155804 -0.15967332 0.2468617
0002f0 30 93 09 3f aa c9 8b 3e e2 69 05 3f 35 fc c3 be
       0.53740215 0.27302295 0.5211469 -0.38278356
000300 07 7d 3c be 87 f4 29 bf ba b4 cd bd cc c4 b0 3e
       -0.18407069 -0.66388744 -0.100442365 0.34525144
000310 c7 a6 29 bf d2 1b 8a bf df b8 76 be ad 7b 9a be
       -0.6627011 -1.078974 -0.2409396 -0.30172482
000320 52 e9 83 be ce f2 05 3e 92 df e2 be b3 89 20 3e
       -0.25763947 0.13080904 -0.44311196 0.15677528
000330 c0 11 01 bf 11 ad b6 be 11 ff 5c be 9a af dd be
       -0.5041771 -0.35678914 -0.21581675 -0.43298036
000340 1a 3c 33 3f c2 f0 79 3f ec ab ab 3c ed 53 74 be
       0.7001358 0.9763299 0.020956002 -0.2386014
000350 89 49 35 bf 80 f3 65 bf cb 44 35 be 10 35 c7 be
       -0.7081533 -0.89824677 -0.17702024 -0.3890767
000360 ae 7c 76 3d 66 1f 80 3e 44 34 9c 3e 95 30 2e bd
       0.060177498 0.25023955 0.30508626 -0.0425268
000370 d8 5a 3c 3e da 50 01 be a4 d6 00 3c 8e 90 59 bb
       0.18394029 -0.12628499 0.007863674 -0.0033197734
000380 c1 37 32 3f 0a 13 cb 3e a1 41 41 3e aa 83 98 3e
       0.69616324 0.39662963 0.18872692 0.29787952
000390 22 fc 24 3e fc 01 13 3e 65 bd fa 3e da 8c 06 bf
       0.16111806 0.14356226 0.48972622 -0.5255867
0003a0 8d 87 09 3f 3f 20 99 3f 20 52 c8 3e e9 57 17 be
       0.5372246 1.1962966 0.39125156 -0.14779629
0003b0 88 e3 28 bf b1 15 76 bf 5f b5 09 bf e0 b9 b1 3e
       -0.65972185 -0.9612685 -0.53792375 0.34712124
0003c0 8a cc 85 3c 6c b0 0b bf 70 90 a9 3b 07 97 6f 3e
       0.016332883 -0.54566073 0.005174689 0.23397456
0003d0 d2 56 ad 3e 6b 61 f3 3e d2 a2 d3 be cf 56 fe be
       0.338553 0.47535262 -0.4133516 -0.49675605
0003e0 33 53 da 3e 5f 1c 78 3f 99 c5 c9 3e e9 62 f5 3e
       0.426416 0.9691829 0.39408568 0.47927025
0003f0 90 18 bc 3d e3 a9 ef 39 22 fa 1a 3d 9c 2e 4d be
       0.091843724 0.00045712208 0.0378362 -0.20037311

bias f4 [64]
000000 e0 28 eb bd 40 fd 7b be 38 93 bf 3e ed af d7 bd
       -0.11482406 -0.24608326 0.37417006 -0.10531602
000010 b0 af a7 3e 35 c5 55 3d 5b f7 dd bd 3d ae f4 bc
       0.32751226 0.052190024 -0.10838195 -0.02986824
000020 57 61 70 3e a9 3a e5 3d 78 dc a2 be c6 e8 5b bd
       0.23474632 0.11192829 -0.3180883 -0.053688787
000030 d1 10 08 be 1e 41 a8 be 90 ab 58 be 9e 1f b8 be
       -0.13287665 -0.3286218 -0.21159196 -0.35961622
000040 8b 24 95 be 0a 64 6e 3d 33 6e 97 3e 56 98 c1 bc
       -0.29129443 0.058200873 0.29576263 -0.02363221
000050 19 01 f4 3d ee 4a df be a6 ad aa 3d 76 58 be be
       0.11914272 -0.43611854 0.08333902 -0.37176865
000060 2d ee 92 3e 02 18 fa 3e d0 42 bb 3e 18 25 b2 bc
       0.2869734 0.48846442 0.3657441 -0.021746203
000070 ea 0e de 3e b0 b6 92 be 30 d8 3a be b7 44 b5 bd
       0.43370754 -0.28655005 -0.18246531 -0.08850997
000080 71 bf 46 3e ab 41 8e 3e 6b 87 8c 3c 34 5f ea be
       0.19408967 0.27784476 0.017154416 -0.4577576
000090 69 23 5d 3e d8 c0 8a be c4 72 8e 3d 06 62 be be
       0.21595539 -0.27100253 0.069554836 -0.3718416
0000a0 93 50 6e bd c9 c7 f1 3e 8f d3 f9 3b aa de 39 be
       -0.05818231 0.47222736 0.0076240967 -0.18151346
0000b0 c6 66 d7 be e6 e4 a4 3e a3 50 4c bd c2 89 ed 3d
       -0.42070597 0.32205886 -0.04988159 0.11598541
0000c0 96 03 c1 be 39 e8 ce 3e 02 7c a3 3e 96 8d a3 3e
       -0.37698048 0.40411547 0.31930548 0.3194396
0000d0 34 ea b2 3e 5e 9d 95 be f2 f7 a3 3e 30 f4 bb bd
       0.34944308 -0.29221624 0.32025105 -0.091774344
0000e0 e6 bf 24 be 10 33 d7 be a0 94 94 bd 4e e1 84 bc
       -0.16088828 -0.42031145 -0.072549105 -0.016220715
0000f0 89 ff 0e 3e 89 49 a2 be 9c 8c b3 be 4a d0 49 be
       0.13964666 -0.31696728 -0.35068214 -0.19708362

weight f4 [64, 64]
000000 a2 b2 31 be 8c ee 03 3d bd 88 4b be b5 be 8a bc
       -0.173533 0.032209918 -0.1987638 -0.01693664
000010 57 28 42 bd 91 dc 9c be fe 64 c7 bd c1 2a fa bc
       -0.047401752 -0.3063703 -0.097360596 -0.030537965
000020 e0 82 8c 3d a0 36 81 3d 17 cb 05 3d c1 e6 e4 3d
       0.068609 0.06309247 0.032664385 0.11176825
000030 f9 7b 4a bd ff db 5d 3d e9 01 ab 3d b2 dc 07 3e
       -0.049434636 0.054164883 0.08349974 0.13267782
000040 79 d6 59 bd 52 d7 42 3e 5d ba f0 3d 50 ef f5 3c
       -0.053183053 0.1902745 0.11754296 0.03002134
000050 92 a4 1b 3d 5e d2 c1 bd cc c2 c7 bc b9 bd c6 3c
       0.037998743 -0.094639525 -0.024384879 0.024260389
000060 be bc 13 3d 6c f6 e2 3c 3e e3 2c 3e e8 5f 9b 3d
       0.03606867 0.027705394 0.16883561 0.07586652
000070 23 cf df bd 26 ea 40 3d 07 e2 c6 bd 9d 83 6e be
       -0.1092818 0.0470983 -0.0971108 -0.23292394
000080 33 5a 06 3e ff 29 7b 3e b5 a6 c1 bd dc 4f 78 3e
       0.13120346 0.24527739 -0.09455625 0.24249214
000090 dd 04 ea 3c 35 1f a1 bd 0e 3a 00 be 42 96 da bc
       0.028566772 -0.078672804 -0.12522146 -0.026682977
0000a0 82 ce 04 be 10 ec ca bd e1 d1 9c 3e 39 49 2d 3e
       -0.12969401 -0.099083066 0.30628875 0.16922463
0000b0 d3 da 0c be 9f 74 e8 bd b1 21 2f be be 2d 2b bd
       -0.1375535 -0.11350369 -0.17102696 -0.04179167
0000c0 0a cf 2a 3e 02 ef 06 3e 8b 2b 6a 3d 0c c4 e2 3d
       0.16680542 0.13177112 0.057170432 0.11072549
0000d0 12 7e 26 be 41 c1 87 3e 79 8b d5 bd 31 65 70 bd
       -0.1625903 0.2651463 -0.10426993 -0.058690254
0000e0 fd 53 4c bd 0a c9 54 3d 3a 78 7f bd 00 29 40 3e
       -0.049884785 0.05194954 -0.062370516 0.1876564
0000f0 fa 0a 2a 3e 9b 4a 5b bd 0b e2 8c be 00 67 87 bd
       0.1660575 -0.053537946 -0.27516207 -0.066114426
000100 97 3c 42 3e cb 23 fa 3d b6 c6 ed bd 4b ab 0b 3d
       0.18968426 0.12213858 -0.11610167 0.034098905
000110 4e 64 8e bd ab 15 d6 3d bc af 4c bc 01 a6 2e bd
       -0.06952725 0.104533516 -0.01249307 -0.042638782
000120 8d 2c bc ba c1 a5 78 bd e6 23 87 3d f5 3c a5 bd
       -0.0014356539 -0.06070495 0.06598644 -0.08068267
000130 e9 60 fd 3d 25 55 bb 3d 20 91 30 bd f5 94 20 bd
       0.12372 0.091470994 -0.043107152 -0.039204556
000140 21 cc f2 3d f3 33 5f 3d 41 06 0b bd 02 61 d6 3d
       0.11855341 0.054492902 -0.03394151 0.104677215
000150 5b 29 09 be c0 4f b5 3d f1 10 aa 3d 05 ae 0e bd
       -0.13394682 0.08853102 0.083040126 -0.034833927
000160 a9 cf 8b bd 64 88 a8 bd ee 56 14 3e 3c 37 a5 bc
       -0.068267174 -0.082291394 0.14486286 -0.02016794
000170 6a 77 8d 3d 29 27 9d bd cd 5d ca bc 15 60 91 3d
       0.06907542 -0.07673485 -0.02470293 0.07098404
000180 db 11 80 3d f7 a0 1b 3e 2e 8b 90 bd 36 0a 1d 3e
       0.06253406 0.15198122 -0.070577964 0.15335926
000190 9c d6 b8 3d c3 b1 22 bd cc a4 9f bd c2 28 bd 3d
       0.090253085 -0.039720308 -0.077951044 0.092362896
0001a0 70 e3 ed bd c5 9f 94 3c b1 1d 4e 3e ea fd ad 3c
       -0.11615646 0.01814259 0.20128514 0.02123924
0001b0 13 1b 85 3d 69 05 8f bb 63 e7 92 3d 97 6f fd 3c
       0.064993046 -0.0043646586 0.0717304 0.030937
0001c0 9f 52 8f bc 15 ad 5c 3e ce 6c d0 bd 10 ef 86 3d
       -0.017495451 0.215504 -0.10177003 0.06588566
0001d0 0f 27 c2 3d 72 71 1e 3e d1 de 7c 3c 8f 08 e8 bd
       0.09480106 0.15472963 0.015433983 -0.113297574
0001e0 64 87 8b bc 75 e7 e4 bc 67 1c 80 3e a9 17 13 3e
       -0.017032333 -0.027942399 0.2502167 0.14364494
0001f0 86 d7 56 bd 78 a6 6e 3c dd 7e 1a bd 2d e3 c3 3d
       -0.052451633 0.014566056 -0.037718643 0.09564815
000200 29 e5 ac bd 54 6e b9 3c ce 87 15 be 5c 10 3e 3d
       -0.08442146 0.022635616 -0.14602587 0.04640232
000210 15 27 b3 bc 3c ab 4c bd 8e d8 c9 3d 5b d1 83 3d
       -0.021869222 -0.04996799 0.09855758 0.06436416
000220 d1 6e 6a bd e0 10 9a bc 01 04 a0 3d 24 f5 87 bc
       -0.05723459 -0.018806875 0.07813264 -0.016596384
000230 00 e3 ce bd 87 6d 09 bd 03 05 ed bd 9d 9f 1d 3e
       -0.101018906 -0.03355172 -0.115732215 0.15392919
000240 6b e1 fa 3d e2 bd 80 3c 7d f0 01 3e f3 eb c0 3c
       0.12250026 0.015715543 0.12689395 0.02355001
000250 6f b2 a2 3d 87 08 a6 3d 40 27 a2 39 d3 7e 51 3c
       0.0794419 0.08107095 0.0003092829 0.012786585
000260 38 e6 18 3e f8 bf 9a 3d d5 8a 3a 3d 53 ad 93 3d
       0.14931571 0.075561464 0.045542557 0.07210793
000270 f3 52 c0 3c 0f 18 0a 3d 17 e9 b0 3b 89 f8 4a 3d
       0.023477053 0.03371435 0.00539888 0.049553428
000280 d2 63 0f 3e 37 9e b8 3d 81 00 1e 3d ce 0d e5 3d
       0.14002922 0.09014552 0.0385747 0.11184274
000290 a0 be f8 bd 2b 18 e2 bd 18 f3 89 3d be bd f0 3d
       -0.12145734 -0.11039766 0.067358196 0.117549405
0002a0 69 1b dc 3d 67 0a 62 bd d6 dd d8 3d 46 11 da 3d
       0.107474156 -0.0551857 0.10589187 0.10647826
0002b0 74 5d 81 bd bc 11 8f 3d 6b 54 ef 3b 2f 0a 7d bd
       -0.06316653 0.069858044 0.0073037646 -0.06177729
0002c0 fd 49 04 3d 65 63 b7 3d 2e 6c ae bc bf f7 4c bd
       0.032297123 0.08954505 -0.021291818 -0.050040957
0002d0 ef fe 52 3d 74 11 2d 3e e7 98 4e bd da d6 22 bd
       0.051512655 0.16901189 -0.050438788 -0.03975568
0002e0 79 1c 3d 3d 30 29 36 bd 7e 17 79 3d 53 48 d7 3d
       0.04616973 -0.044472873 0.06081342 0.105118416
0002f0 73 03 cf 3d 32 b3 d5 3d cf 99 b4 bd 66 1f 1c bd
       0.1010808 0.104345694 -0.08818399 -0.03811588
000300 4e ad 0f be a9 5b 7c bd 66 2d 7f bd 92 e0 70 3c
       -0.14030954 -0.06161085 -0.062299155 0.014701979
000310 75 64 0a 3e 4a 3f 7d 3b 2a e8 b8 3d 78 40 ec bb
       0.13514884 0.003864246 0.09028657 -0.0072098337
000320 f8 dd dd 3c 32 6a 82 3d f0 e8 94 bd b2 bf 78 3d
       0.027083382 0.063679114 -0.07270992 0.06072969
000330 b2 c7 e5 3d 1f c9 9a 3d 45 1e fa 3d 19 b4 04 3e
       0.112197295 0.07557892 0.12212805 0.12959327
000340 e2 be 36 3d 0c 7b f3 bd ba 8b 39 3d 69 48 3f 3d
       0.044615634 -0.11888704 0.04529927 0.046699915
000350 c9 69 74 bd 3e bc cd 3c 5e 3a bf 3d de 29 ef bd
       -0.059671197 0.025114175 0.093373045 -0.116779074
000360 45 53 ab bd 3f 3b 88 bc 13 c8 b2 bd 55 51 9e 3c
       -0.08365492 -0.016629813 -0.087295674 0.019325892
000370 0e c3 64 bd cc 6d 67 bd f7 f6 5a 3d b6 07 64 3c
       -0.05585008 -0.056501195 0.05345818 0.013917854
000380 d1 45 76 bd fa 7b e3 bc a4 56 7c 3d 01 47 03 bd
       -0.060125176 -0.027769078 0.061606064 -0.032050136
000390 64 53 db 3d 4e fc b9 bc fe 8d 6b bd eb 47 d9 bc
       0.10709265 -0.022703316 -0.05750846 -0.026523551
0003a0 46 ec 04 3e 04 89 2d 3e 0d bb d0 bc 73 18 71 bd
       0.12980756 0.16946799 -0.025479818 -0.058861207
0003b0 bb 33 43 3d 1b df 15 3e a7 a8 c5 bd ba 94 3c 3d
       0.047656756 0.14635889 -0.096513085 0.046040274
0003c0 83 c7 33 3d 5a 65 8e bd 6a cf 02 3d 2b d5 f2 3c
       0.04389144 -0.06952925 0.031936087 0.029642662
0003d0 2f c5 d8 bd 42 3f ea bd 01 b3 2d 3e 61 d2 a8 3d
       -0.10584485 -0.11437847 0.16962816 0.082432516
0003e0 7f 0b ac bd 6e 39 f1 3d 08 d8 4f be d7 9b f4 bd
       -0.0840063 0.11778532 -0.20297253 -0.119437866
0003f0 5c 67 6b 3d bb 95 88 3d 29 57 d0 bd 2a 13 9e bd
       0.057471618 0.06669184 -0.101728745 -0.07718499

bias f4 [64]
000000 b9 91 ab bc b3 fe f3 3d bc 41 39 bd 36 86 16 3e
       -0.02094351 0.119138144 -0.045228705 0.14699635
000010 9d f0 08 be 3b 26 b2 bb 80 94 90 bd 9a f6 c7 bd
       -0.13373037 -0.0054366863 -0.07059574 -0.097638324
000020 45 60 f9 bc 5d 37 28 bd bc 8a 0a 3e 08 fe 13 bc
       -0.030441413 -0.041068424 0.13529485 -0.009032734
000030 56 0f ee 3d 76 28 27 bd 0e f5 26 3e c9 87 a1 3d
       0.11624019 -0.04081007 0.16304418 0.07887227
000040 8a d1 f0 bd db 56 46 bc 65 18 8d 3d 13 0c aa 3b
       -0.117587164 -0.012105669 0.068894185 0.0051894276
000050 b1 fb 42 3d 4a c2 29 3e 05 3c 4f 3d a7 a3 e0 bc
       0.047603313 0.16578022 0.05059435 -0.027421786
000060 de 9b 4d bd 02 2c e5 bb b3 d3 03 be 1d fe 46 3b
       -0.050197475 -0.0069937715 -0.12873726 0.0030363866
000070 7a 9f e3 bc 27 32 ad 3c c2 e9 84 bd 39 07 1f 3e
       -0.027786005 0.021142079 -0.06489898 0.15530099
000080 f8 73 03 bd 45 05 1a 3d 71 6a 4a bd 76 49 ad 3d
       -0.03209302 0.03760268 -0.049417917 0.08461277
000090 2b 96 d6 3d a2 5f eb bc bf e0 ca bc be 96 23 3d
       0.10477861 -0.028732125 -0.02476537 0.03993868
0000a0 85 29 52 3c d9 cf 8e bd cf 61 8f bc ad fa f6 bc
       0.012827282 -0.069732375 -0.017502693 -0.030148828
0000b0 46 d8 19 3d 39 dd ee bd 8c 0d 11 3e 08 d1 9a bc
       0.03755977 -0.116632886 0.14165324 -0.018898502
0000c0 a9 fc 8a bb d6 ee f9 bd ff 96 6f 3d ef 67 e8 bd
       -0.004241545 -0.122037575 0.05849361 -0.11347949
0000d0 ab 1f 88 3d bf 56 2d bc db b2 4a 3d f1 22 22 3d
       0.06646665 -0.010579764 0.049486976 0.039584104
0000e0 90 98 fc 3d 46 3a 21 bd cd 14 1e bd de 7b 83 3d
       0.123337865 -0.039362215 -0.038594056 0.0642011
0000f0 8f e3 2d 3e 8b 6f 46 3c 54 53 93 3d d9 88 16 3e
       0.16981338 0.012111555 0.07193628 0.1470064

weight f4 [64, 64]
000000 07 9b 41 bc 14 5b 99 3d 56 be f6 bd 17 fe fa 3c
       -0.011816747 0.07488075 -0.120480224 0.030638738
000010 3d f8 f4 bb dd 44 7c 3c 15 1a 92 bd f1 8b 15 3e
       -0.0074758814 0.015397278 -0.07133881 0.14604165
000020 99 e5 71 3c b0 dd c1 bc 5a 21 ad 3d f3 38 eb bc
       0.014764213 -0.02366528 0.08453627 -0.028713679
000030 f1 d9 64 3a 0e f5 94 3d b5 64 0b 3d 25 02 7b 3c
       0.00087299856 0.07273303 0.03403159 0.0153203355
000040 65 63 bb 3d 83 d4 a3 3d d0 8d 98 bd d8 e2 4d bd
       0.091498174 0.07999518 -0.074489236 -0.050265163
000050 04 fb 10 3d 75 a2 2b 3e 9d 19 81 3d bd 77 6d 3d
       0.035395637 0.16761191 0.063037135 0.05797552
000060 ce 7a 77 bd d5 cb a3 bd 6e 97 9d bd d5 40 a7 bd
       -0.06041985 -0.07997862 -0.076948985 -0.081666626
000070 84 18 6c 3d 51 aa 3a 3e b2 05 b9 3d 97 e9 95 3d
       0.057640567 0.18229033 0.090342894 0.07319944
000080 b3 71 c2 bd 33 4d 2a bd 25 a2 39 3e 6a 97 67 3d
       -0.09494343 -0.04157753 0.1812826 0.056540884
000090 5a 3f 43 bc ce b9 45 3d 54 88 a7 bd 5c 88 92 bc
       -0.01191696 0.0482729 -0.081802994 -0.017887287
0000a0 df ee 80 3d f1 de 0b 3e 6d f3 27 3d 83 39 86 3d
       0.06295561 0.13659264 0.041003633 0.06553938
0000b0 5b 03 4f bc ac d4 7e bc 73 5c fa 3d ac 91 ff 3d
       -0.012635077 -0.015553635 0.122246645 0.124789566
0000c0 62 ed 0c bd 2e a3 87 bc ca c9 8c 3d 81 04 db 3c
       -0.034406073 -0.016557302 0.06874426 0.026735546
0000d0 88 ee 9f 3d b0 fd 44 bd 54 56 98 3c fd a9 8a bc
       0.07809168 -0.048093498 0.018595852 -0.01692676
0000e0 d9 1b 01 3e 55 77 8e bd b9 3f 8b bd a0 24 b6 bc
       0.1260828 -0.069563545 -0.067992635 -0.022234261
0000f0 5d 11 97 3c df f7 ad bd 66 79 12 3d 68 30 36 3e
       0.018440897 -0.08494543 0.035760306 0.17791903
000100 a5 0e 57 bc 90 8d e1 bd ad 6d 4c 3d 95 58 3c 3e
       -0.01312605 -0.11013329 0.049909282 0.18393166
000110 47 c7 a1 3d 6c 4e b4 3d 94 93 d8 bd 6d 3b 98 3d
       0.07899337 0.0880402 -0.10575023 0.074332096
000120 cd 2f c6 bd a2 bc c3 3c 74 85 83 3c 1f 54 21 3c
       -0.09677086 0.023893658 0.016054846 0.009846716
000130 4e f1 f5 3d 49 73 e7 bd 1e e4 e6 3d fc 79 ee bd
       0.12008916 -0.11301286 0.11273979 -0.116443604
000140 84 d1 87 bd e0 a1 c9 bd db 9a ce 3d ca 6c 41 bd
       -0.06631759 -0.09845328 0.1008813 -0.04722289
000150 fe e0 8a 3d cc cb 4c 3d 9f 80 e0 3d d4 5f 0d bc
       0.06781195 0.049999043 0.109620325 -0.008628804
000160 81 2b 49 bb dc 9d cd 3d 75 41 13 bd e8 4b f0 3b
       -0.0030696096 0.10039875 -0.035951097 0.0073332675
000170 59 7b 00 3c 87 b4 79 3d ad 82 44 bd 48 59 5b bd
       0.007841908 0.06096318 -0.047976185 -0.053551942
000180 9f 74 c5 bc dd 4c 20 bd aa 35 b1 3d 8f a2 1e 3e
       -0.02410346 -0.039135803 0.08652814 0.15491699
000190 2c 2e c6 3d 95 e3 b8 bc 5f 4b d5 3c 3a 3e 02 3e
       0.09676775 -0.022569457 0.026036916 0.1271905
0001a0 26 3c 04 3e 44 a2 f8 3d 32 64 81 bb a2 43 64 3d
       0.1291357 0.12140325 -0.003948712 0.055728562
0001b0 5d fe dc bc fe ee 1d be dd b6 09 3e e9 61 d9 3d
       -0.026976759 -0.154232 0.13448663 0.10614378
0001c0 70 c6 bf 3b 2d 68 db bd 31 70 61 3d 7b 71 86 3c
       0.005852513 -0.10713229 0.055038635 0.016411534
0001d0 4e 31 f8 3c 81 41 85 3b 1a 7c c4 bb 14 5d 61 be
       0.030296948 0.0040666466 -0.0059962394 -0.22008163
0001e0 15 b9 0a 3e 31 8d 7d bc 33 6f 68 3d f7 34 04 be
       0.13547166 -0.015475557 0.056746673 -0.1291083
0001f0 13 3b af 3d 8d cf 1e bd 3d ed 02 be b7 2a 41 bd
       0.085561894 -0.038772155 -0.12785812 -0.047159877
000200 f9 6a ec 3d 83 e5 b1 3c d5 7d 5f 3d 88 19 65 3d
       0.11543841 0.021715885 0.054563362 0.05593255
000210 3b af 70 3d ac 17 01 3e f2 3e ce bd 37 21 96 bd
       0.058760863 0.12606686 -0.100705996 -0.07330554
000220 3c 3d 40 3d 0a a9 1a bc 4b 33 13 bd 56 72 b2 bc
       0.046933398 -0.009439716 -0.03593759 -0.021783035
000230 5f 69 24 be 6c b5 2a 3e f0 20 a4 bc 0b 77 48 3d
       -0.16055821 0.1667077 -0.020035237 0.048941653
000240 48 a4 c8 3d 6c e3 bb 3c 04 b5 01 bd b4 da a4 3d
       0.09796959 0.022935592 -0.03166677 0.08049527
000250 22 6d ea bb 06 db ce bd 7c 95 94 3d fd aa 19 be
       -0.007154123 -0.10100369 0.072550744 -0.15006633
000260 18 dc fd 3d 6b 02 d0 3d 2b 2f 8d 3d 04 41 35 3e
       0.12395495 0.10156711 0.06893762 0.17700583
000270 42 10 79 3d 54 38 e6 bd 52 11 00 3d b7 38 72 3c
       0.06080652 -0.112412125 0.031266518 0.01478403
000280 54 4d 06 3e 60 a2 03 3e 9f 3b 2f 3d 9d b4 be bc
       0.13115436 0.1285491 0.04278147 -0.023279482
000290 40 f3 79 3d f9 8d e7 bd 4e 85 de bc bd 31 e9 bd
       0.061022997 -0.11306376 -0.027163174 -0.1138644
0002a0 4c 59 06 bc 4d d3 0d be ab f1 60 bd 38 e7 a1 3c
       -0.008200001 -0.13850136 -0.054917973 0.019763574
0002b0 ab 5f be 3c 88 01 bd 3d f6 31 ce bd b5 18 fd bd
       0.023238977 0.09228808 -0.10068123 -0.12358228
0002c0 c4 2e 0e 3e 9f 13 a4 3d 66 56 88 bd af d6 61 3d
       0.13885027 0.08011555 -0.06657104 0.05513638
0002d0 e4 84 cc bd 8e 57 01 3e b1 8b 06 3d 4c 1b 12 3d
       -0.099862844 0.12631056 0.032848064 0.035670564
0002e0 3a 1b b5 bd 17 85 1a 3e 20 62 0b 3c f4 1d 03 3c
       -0.08843084 0.15089832 0.008507282 0.008002747
0002f0 e1 fc 15 be 70 0f 83 b9 02 98 83 3d 78 67 06 bd
       -0.14647247 -0.0002499777 0.064254776 -0.03281352
000300 65 99 38 3b c5 bb 11 bc a1 2d 24 bd 9d 94 ed 3d
       0.0028167602 -0.008894865 -0.040082578 0.11600611
000310 e0 00 52 bd eb 3f 09 be d5 2b 3c bd d0 f5 11 3e
       -0.051270366 -0.13403289 -0.04594024 0.14253926
000320 3e 41 dd 3c ac ba 10 3d f6 b8 3a 3e 03 5d 25 3d
       0.027008649 0.035334274 0.1823462 0.040371906
000330 22 26 1c 3e 33 a6 bc 3c d9 ef 14 3c 4d 03 b8 3d
       0.15248922 0.023028469 0.009090387 0.089850046
000340 46 9a 83 bc e9 b8 0d bd ff 0f 80 bd d5 d0 c2 3c
       -0.016064774 -0.034600172 -0.06253051 0.02378122
000350 9f 7d a4 3b d6 85 0f 3d bb aa 05 be f4 4e c6 3d
       0.005019858 0.035039745 -0.1305341 0.09683028
000360 90 e6 b2 3d ce a8 0c 3d f1 23 63 3c 93 d1 ea bd
       0.087353826 0.034340672 0.01386355 -0.11465754
000370 7d b7 f7 3d 6e a6 bd 3d fc a6 95 3d 77 a9 a4 3d
       0.120955445 0.092602596 0.0730724 0.08040135
000380 de 43 aa 3c 02 40 1e bd ec f2 07 3e ed 28 20 3d
       0.020784315 -0.03863526 0.13276261 0.03910153
000390 e5 52 30 3d 27 e4 8f bc 04 f4 0d bd 39 ad 00 3e
       0.043047804 -0.017564846 -0.03465654 0.12566079
0003a0 a1 b0 e8 3c f8 14 26 3e a6 ea f5 3d 30 67 18 3c
       0.028404536 0.16218936 0.12007646 0.009301946
0003b0 84 5d 07 bd 12 d4 bf 3a 9a 6f 9c bd d2 83 d3 3d
       -0.033048168 0.0014635345 -0.07638474 0.10327877
0003c0 67 30 53 bb e1 9a ed bd a7 2e c1 3d 6a e8 91 3d
       -0.0032224895 -0.116018064 0.09432726 0.071244076
0003d0 13 84 a0 bd de 84 75 bd a0 20 3b 3d fa c3 88 bc
       -0.07837691 -0.059941165 0.04568541 -0.016695011
0003e0 04 cc 80 3d c2 f8 e1 bd ee 47 60 3d 88 26 4a 3d
       0.06288913 -0.11033775 0.054756097 0.049353153
0003f0 53 b2 f5 3d 81 5f 9a bd 37 51 ee 3b d2 0d 45 bd
       0.11996903 -0.07537747 0.007272865 -0.048108883

bias f4 [64]
000000 6e 06 6b bc a3 c7 67 3d cb fd 75 bd fc bd 08 3e
       -0.014344795 0.056586873 -0.06005649 0.13353723
000010 fb 9e 76 bd ed 66 54 3d d9 86 ff 3d c4 c0 01 3d
       -0.06021021 0.05185597 0.12476892 0.031677976
000020 95 5a 5c bd 0f d1 4f bd 5d 9c 1a 3e 74 07 bc 3d
       -0.053797323 -0.050736483 0.1509871 0.09181109
000030 d0 c9 32 bd 54 10 08 3e 30 33 9e 3b 1d 9e 1d bd
       -0.043649495 0.13287479 0.0048278794 -0.038480867
000040 63 df 00 be 61 1a a5 3d 3e ee 65 3d a9 d5 24 bd
       -0.12585215 0.08061672 0.05613541 -0.040242825
000050 88 4e c0 bd e8 d0 09 3e 78 5c b7 bd c5 b5 42 bd
       -0.09389979 0.13458598 -0.08953184 -0.04753663
000060 14 95 85 bd df 2f 9f 3d 86 51 18 3d 80 6b 97 3d
       -0.06522575 0.077728026 0.03718712 0.07393551
000070 45 88 ef 3d 78 f4 48 3d ee fb 91 3c 21 bd 91 3d
       0.11695913 0.04906127 0.017820325 0.071161516
000080 56 81 01 3c ce 9c 6b 3c 4b 7c c6 3d 28 10 24 3d
       0.007904371 0.014380647 0.09691676 0.04005447
000090 f0 96 bf 3d 18 f7 36 3d 11 4c d1 bd ec 2f c8 bd
       0.09354961 0.04466924 -0.10219587 -0.09774765
0000a0 d1 b7 13 3e 56 39 8c 3d 79 b4 c5 bc 66 1c 53 3d
       0.14425589 0.068468735 -0.024133908 0.051540755
0000b0 5a b9 09 3e 50 01 88 bd 4d b9 a3 bd 74 b4 47 bd
       0.13449612 -0.06640875 -0.07994328 -0.048756078
0000c0 d9 4b 05 bc 30 ad 9c 3c cd 9d 1f 3e 2d 4b 8b 3d
       -0.008135759 0.019125551 0.1558754 0.06801448
0000d0 81 14 31 bd c5 fb 5b 3d 6b 74 1a bd 37 0e b3 bb
       -0.043232445 0.053706903 -0.03770868 -0.005464341
0000e0 21 2f 53 bd 07 1f 33 bc cd f7 b6 b9 78 49 db 3d
       -0.051558618 -0.01093269 -0.0003489837 0.107073724
0000f0 ac 94 d9 3d d5 47 f4 bc 8b e8 83 3d b1 02 e0 3d
       0.1062406 -0.029819408 0.064408384 0.10938013

weight f4 [1, 64]
000000 95 7b d9 bd 27 51 56 bd bc 31 03 3e 13 41 0a be
       -0.106192745 -0.052323487 0.12811941 -0.13501386
000010 d8 f5 0e 3e fe b0 b1 bd 45 38 af bd 05 2d 12 be
       0.1396097 -0.08676337 -0.085556544 -0.14274986
000020 8d 38 a8 bd 1a 75 36 be d9 c5 09 be 7f 20 b7 3c
       -0.08213911 -0.17818108 -0.13454379 0.022354363
000030 8a 15 06 be ab 81 b0 bd d2 18 c3 bd 49 2f e3 bd
       -0.13094154 -0.08618482 -0.095262185 -0.11093003
000040 ce 40 6b 3d 2a fd 3a be a0 d1 03 3d c8 0c 6e 3d
       0.05743485 -0.18260637 0.032182336 0.058117658
000050 36 a0 fd 3d e9 76 8d bd b9 da bc 3d b2 1a 98 bd
       0.123840734 -0.06907446 0.092214055 -0.07426967
000060 8f be c0 3c b0 cb 86 3c 77 8b 09 3e 32 75 ae bd
       0.023528365 0.016454548 0.13432108 -0.08518447
000070 c0 b0 61 bd 39 0b 13 bd 36 3e 0f 3e 3a d6 8f 3d
       -0.055100203 -0.035899375 0.13988575 0.07023282
000080 25 42 07 be e0 c0 43 3d 7a 4d 14 be 2a 68 ac 3d
       -0.13208826 0.04779136 -0.1448268 0.08418305
000090 31 f1 34 3d 37 d6 b9 bd a6 9c d9 3c f3 86 ef 3d
       0.04417533 -0.09074061 0.026563954 0.116956614
0000a0 85 07 f3 bd 0b c4 40 3c d5 83 59 3d db fe 2e 3d
       -0.118666686 0.01176549 0.05310424 0.042723518
0000b0 0a f9 e0 bc 4f bd f3 3c b5 c0 42 bd 0a 71 b6 3d
       -0.027462501 0.029753355 -0.04754706 0.08908279
0000c0 d4 f8 ae 3d ae fb f1 3d f3 39 b2 bd 92 7d d3 bd
       0.08543554 0.11815582 -0.08702459 -0.10326685
0000d0 63 24 0b bd b6 e9 57 3c 2e 54 90 3d 47 7c 04 be
       -0.033970248 0.01317828 0.07047306 -0.12938033
0000e0 a9 14 d5 bd bc 50 0b be 0b 8a 19 be b3 0e 02 3e
       -0.10404331 -0.13605016 -0.14994065 0.1270092
0000f0 26 33 c9 3d 18 5c 27 be 99 02 f8 3d 50 37 f2 3d
       0.09824209 -0.16343725 0.121098705 0.11826956
