models/l1_comparison/model_l1_2.pt (torch, 38847 bytes, 7 tensors)

weight f4 [64, 4]
0	0x3f067b7f	0.5253219
1	0x3f07e93b	0.53090256
2	0x3d8d4e54	0.068997055
3	0x3e242ea8	0.16033423
4	0x3eca11a7	0.39466593
5	0x3f71d67c	0.944679
6	0x3dd88891	0.10572923
7	0xbed2f6fc	-0.4120406
8	0xbe9b2343	-0.3030034
9	0xbbee8212	-0.007278689
10	0xbdc6453c	-0.09681174
11	0xbd39ce19	-0.045362566
12	0xbe88ba61	-0.26704696
13	0xbe966276	-0.29371995
14	0xbdffbaf8	-0.12486833
15	0xbe844167	-0.25831148
16	0xbee9326d	-0.45546284
17	0xbf6f52fe	-0.9348601
18	0xbde94f78	-0.113921106
19	0xbeddb140	-0.43299294
20	0x3f181463	0.5940611
21	0x3f21addc	0.63155913
22	0xbc3e981e	-0.011632947
23	0x3d2484f1	0.040165845
24	0x3f1259c4	0.5716822
25	0xbe12a55f	-0.14320897
26	0xbed2acec	-0.41147554
27	0x3ef86032	0.4851089
28	0xbee2c789	-0.44292858
29	0xbf8155ae	-1.0104272
30	0xbf22ad4a	-0.6354567
31	0xbe3540b6	-0.17700467
32	0x3f0154e1	0.5052014
33	0x3f63e7ae	0.8902539
34	0x3f45af5b	0.77220696
35	0x3c32981b	0.010900523
36	0xbde1c121	-0.110231645
37	0xbfbe58ac	-1.487081
38	0xbef53cde	-0.47898
39	0x3df13d93	0.117793225
40	0x3bdd7e32	0.0067594284
41	0xbf0f5893	-0.5599453
42	0x3e81f8b1	0.2538505
43	0x3ebe41f1	0.37159684
44	0x3dc5ee24	0.09664562
45	0x3f589cdd	0.84614354
46	0x3ebbac13	0.3665472
47	0x3ed50cc1	0.41611293
48	0xbf09825f	-0.53714556
49	0xbfa14227	-1.2598313
50	0xbe1af65a	-0.15133038
51	0x3e4ec035	0.20190509
52	0x3e5af919	0.21384086
53	0xbe753f39	-0.23949899
54	0x3e9d7a17	0.3075721
55	0x3e08edcb	0.13371961
56	0xbef0adf9	-0.4700773
57	0x3d7acd76	0.0612311
58	0xbe835d86	-0.2565729
59	0x3eae3bfd	0.34030142
60	0x3e9785a6	0.29594153
61	0x3f4780a5	0.7793067
62	0x3e7fb4a7	0.24971257
63	0x3e4ec2de	0.20191523
64	0x3ebe1389	0.3712428
65	0xbe3d611b	-0.18494074
66	0xbe8cdcec	-0.275123
67	0xbecb87e5	-0.39752117
68	0xbeef0be1	-0.4668875
69	0xbfb37fcc	-1.4023376
70	0xbebaf10d	-0.36512032
71	0xbd1921c9	-0.037385736
72	0x3ecd61e5	0.4011375
73	0x3fb1351e	1.3844335
74	0x3df852bc	0.12125155
75	0x3e9e871d	0.30962458
76	0x3daf31e3	0.08554437
77	0x3f783166	0.96950376
78	0x3e2eef86	0.17083558
79	0x3e49b4a1	0.1969781
80	0xbe53a1c2	-0.20667174
81	0xbf173cf4	-0.5907738
82	0x3e99bfa9	0.30029038
83	0x3effcaaa	0.49959308
84	0x3ebb229b	0.3654984
85	0xbdce443f	-0.10071611
86	0xbedafe78	-0.4277227
87	0xbde9898f	-0.1140319
88	0x3e1f3d5d	0.15550752
89	0x3e6284d2	0.2212098
90	0x3ebe6c57	0.37192032
91	0x3eaeed88	0.34165597
92	0xbe2768f4	-0.1634863
93	0x3f595dd5	0.849088
94	0x3ef82d8c	0.4847225
95	0xbea9b17a	-0.33143216
96	0x3d6d995c	0.058007583
97	0x3f0eba4a	0.55753005
98	0x3f05e54d	0.5230301
99	0x3ef6c27f	0.48195264
100	0xbe677d64	-0.22606426
101	0xbe17d24e	-0.14826319
102	0xbdcb4472	-0.09925164
103	0x3e23fab2	0.16013601
104	0xbce350f6	-0.027748566
105	0xbd866753	-0.06562676
106	0xbe0f52bb	-0.13996403
107	0xbc2fa445	-0.010720317
108	0x3e937135	0.28797308
109	0xbe725176	-0.23663887
110	0xbf07e34c	-0.530812
111	0x3ed888f8	0.42292
112	0x3f270215	0.6523755
113	0xbe39c6f1	-0.18142296
114	0xbec75091	-0.38928655
115	0x3ca2b883	0.019863373
116	0xbedda05b	-0.43286404
117	0xbf3957d1	-0.7239962
118	0xbe3d7050	-0.18499875
119	0xbeca98af	-0.39569613
120	0x3eb00673	0.3437992
121	0xbea363da	-0.31912118
122	0xbce1c5ab	-0.027560076
123	0xbef0ff42	-0.47069746
124	0x3daffe4f	0.085934274
125	0xbd2dcf4d	-0.042434026
126	0xbdd5a257	-0.104313545
127	0x3f11c479	0.5694042
128	0xbf0f984d	-0.5609177
129	0xbfaa1770	-1.3288403
130	0xbef00dc2	-0.46885496
131	0x3e9188f3	0.28424796
132	0x3ea07ed8	0.31346774
133	0xbe60a329	-0.2193724
134	0x3e6cc26a	0.23121038
135	0xbd79c7b6	-0.060981475
136	0xbec56869	-0.3855622
137	0x3e175382	0.1477795
138	0xbef2c3bc	-0.47414958
139	0x3e55fac6	0.20896444
140	0x3ec9b1be	0.3939342
141	0xbf1c7cf8	-0.6112819
142	0xbe72f50e	-0.23726293
143	0x3ebd4521	0.36966804
144	0xbe9920bc	-0.29907787
145	0x3f41cff6	0.7570795
146	0x3f4ca1dc	0.7993448
147	0xbdccd595	-0.10001675
148	0xbec4cd88	-0.38438058
149	0xbf0cc49c	-0.549875
150	0x3e8772c3	0.26454744
151	0x3e34b860	0.17648458
152	0x3f1140fd	0.5673979
153	0xbe5b3cd3	-0.21409921
154	0x3e52c114	0.20581466
155	0xbe08c12c	-0.13354939
156	0xbf11f02d	-0.57007104
157	0xbf2d425d	-0.6767939
158	0xbf1a4ee7	-0.60276645
159	0x3d05e39f	0.03268778
160	0x3e394d5a	0.18095914
161	0xbdcdda2c	-0.100513786
162	0x3e2bc8f3	0.16775875
163	0xbef29384	-0.4737817
164	0xbdd4a37f	-0.10382747
165	0x3e1fe361	0.15614082
166	0x3eb012ae	0.3438925
167	0xbec0ce93	-0.37657604
168	0xbeec5640	-0.46159554
169	0xbf196288	-0.5991597
170	0xbed9a048	-0.42505097
171	0x3ee6a44f	0.45047233
172	0xbe8647d8	-0.26226687
173	0xbd40baf2	-0.047053285
174	0xbecd112a	-0.40052158
175	0x3e4dd166	0.2009941
176	0x3eee609d	0.46558085
177	0x3dfda65c	0.12385246
178	0xbf19a386	-0.6001514
179	0x3d3e8370	0.046512067
180	0xbe90f600	-0.28312683
181	0x3eee9aa5	0.4660236
182	0xbe5319b9	-0.20615281
183	0x3f025856	0.5091604
184	0xbe22644b	-0.15858571
185	0x3ed6f429	0.41983154
186	0xbe43656d	-0.1908166
187	0xbec47f47	-0.38378355
188	0x3f1b7351	0.60722834
189	0x3ee24015	0.44189516
190	0x3ea6f678	0.32609916
191	0xbee352a3	-0.44398984
192	0x3f0841d4	0.53225446
193	0x3fbcc1a6	1.4746597
194	0x3e182aca	0.14860073
195	0x3e6230fc	0.22088999
196	0xbe85f57c	-0.26163852
197	0x3e407402	0.18794253
198	0x3ee56906	0.4480669
199	0x3f136809	0.5758062
200	0xbc970f6e	-0.018439975
201	0x3f5baaff	0.85807794
202	0x3ed88ba1	0.42294028
203	0xbeb07b66	-0.34469146
204	0x3efd796b	0.49506697
205	0x3f419293	0.7561428
206	0x3f170ea6	0.59006727
207	0x3e12770c	0.14303225
208	0xbef2f05f	-0.47449014
209	0xbcb2ea67	-0.021840287
210	0x3ee6dce2	0.45090395
211	0xbdee1b4a	-0.11626299
212	0xbeeba123	-0.46021375
213	0x3e5f667f	0.21816443
214	0xbed158eb	-0.40888152
215	0xbf04b5e5	-0.5184005
216	0x3e880982	0.26569754
217	0x3ea1c9e8	0.31599355
218	0x3f25083a	0.6446568
219	0xbea6eaef	-0.32601115
220	0x3ec8858e	0.39164394
221	0x3cce9cfa	0.025221337
222	0xbee84b71	-0.45370057
223	0x3cd620d2	0.026138697
224	0xbe8e622b	-0.2780927
225	0xbfc8e016	-1.5693386
226	0xbf88913a	-1.066932
227	0x3d883e3b	0.066524945
228	0xbdf83383	-0.121192
229	0x3ca3e75e	0.020007785
230	0xbe9f9eb8	-0.3117578
231	0xbe7ef1e4	-0.24896961
232	0x3ea42e62	0.32066637
233	0x3f993797	1.197009
234	0x3e16bd93	0.14720754
235	0xbe941ad9	-0.28926733
236	0xbe9f40a9	-0.3110402
237	0xbe725455	-0.23664983
238	0x3e6082a7	0.2192484
239	0xbeb9040a	-0.36135894
240	0xbe8a4f81	-0.27013782
241	0x3f49876a	0.7872225
242	0x3f144c2e	0.5792874
243	0xbe66a04e	-0.22522089
244	0xbe25b711	-0.16183116
245	0xbc1e46e4	-0.009660456
246	0xbe84d2a5	-0.2594196
247	0x3e47718d	0.1947691
248	0xbe3d5c87	-0.18492328
249	0x3e0614b6	0.13093838
250	0xbeeb3504	-0.45938885
251	0x3e475686	0.194666
252	0x3ef47599	0.4774597
253	0x3f2d23ac	0.67632556
254	0x3ebc8536	0.36820382
255	0x3dd71c6c	0.10503468

bias f4 [64]
0	0x3e77de2a	0.24205843
1	0x3e96bfb6	0.2944314
2	0x3e636d92	0.22209767
3	0xbe59444c	-0.2121746
4	0x3e9510f0	0.29114485
5	0xbda361bb	-0.07977625
6	0x3e9a1d8f	0.30100676
7	0x3edc3dbe	0.43015856
8	0x3d0c2a64	0.034220114
9	0xbee30d6b	-0.44346175
10	0xbee9bc81	-0.4565163
11	0xbee4f473	-0.4471775
12	0x3d6466b0	0.055761993
13	0x3dddaaf7	0.108236246
14	0xbe9ff404	-0.31240857
15	0xbee282b8	-0.44240355
16	0xbee91457	-0.4552333
17	0x3e4481ff	0.19190215
18	0xbe8955f9	-0.26823404
19	0x3e0ac882	0.1355305
20	0xbd87d5b8	-0.066325605
21	0x3e5486c7	0.20754538
22	0x3ee5613f	0.44800755
23	0xbea7f9cd	-0.3280777
24	0x3eb0d0dd	0.3453435
25	0xbdbd8f4d	-0.09255848
26	0xbdb77301	-0.08957482
27	0x3dd3c0c3	0.10339501
28	0x3e6856a1	0.22689296
29	0x3e4174c6	0.18892202
30	0x3d7cba1c	0.061700925
31	0x3ea3043f	0.31839177
32	0xbf060c41	-0.5236245
33	0x3e5c2774	0.21499425
34	0x3ea3745b	0.3192471
35	0x3ed61105	0.4180986
36	0x3d3e8de3	0.046522032
37	0xbe86c7cd	-0.2632431
38	0x3cdd800f	0.027038602
39	0xbed0273b	-0.4065493
40	0x3e6be87c	0.23037905
41	0x3e42da4e	0.19028589
42	0x3eb82368	0.35964513
43	0x3ed5b7e9	0.41741875
44	0xbe682376	-0.22669777
45	0xbd14be92	-0.036314555
46	0xbee79972	-0.45234257
47	0xbec401ac	-0.38282526
48	0xbebcbf15	-0.36864534
49	0x3ee41a54	0.44551337
50	0x3eb22f75	0.34801832
51	0xbe807c83	-0.25094995
52	0x3ebbab6c	0.36654222
53	0x3e0f0c5d	0.1396956
54	0x3d2e6b07	0.042582538
55	0x3e9b57fd	0.30340567
56	0xbecee65d	-0.40410128
57	0x3e8ab700	0.27092743
58	0x3ba00199	0.004883003
59	0x3ed1acee	0.40952247
60	0x3e54c7bc	0.20779318
61	0xbebe2b70	-0.37142515
62	0x3ea9e7fb	0.331848
63	0xbe59abd1	-0.21256949

weight f4 [64, 64]
0	0x3d13e0de	0.036103122
1	0x3e082f0f	0.13299201
2	0xbde18100	-0.11010933
3	0xbc52daad	-0.012869519
4	0x3dc0fba2	0.09422995
5	0x3cf1270c	0.029437564
6	0x3d83edcb	0.0644184
7	0xbccc5702	-0.024943832
8	0x3d358c2d	0.044323135
9	0x3e417e95	0.18895943
10	0x3ddf9543	0.10917141
11	0x3d6a7dfd	0.057249058
12	0x3d851ea0	0.06499982
13	0x3da0d986	0.07853989
14	0x3df5d47d	0.120034195
15	0x3d37a5c0	0.044835806
16	0xbd841d76	-0.06450932
17	0x3d4099c5	0.047021646
18	0x3e4a9dbe	0.19786736
19	0x3df09d15	0.11748711
20	0x3d92a1f8	0.07159799
21	0xbd1b516d	-0.03791945
22	0x3cb0c970	0.021580428
23	0x3e3f8033	0.18701248
24	0xbd76acd8	-0.06022343
25	0x3d10fa7e	0.035395138
26	0xbd9a96f7	-0.075483255
27	0xbdd56adf	-0.10420775
28	0xbd6f499b	-0.058419805
29	0x3de65cc1	0.1124816
30	0xbb81a6b4	-0.00395664
31	0xbd5dbd0c	-0.054135367
32	0x3e01569d	0.12630697
33	0x3d7971ff	0.06089973
34	0xbd20433a	-0.039126612
35	0x3dc0906b	0.094025455
36	0xbc5c7a93	-0.013456958
37	0x3d87b2a9	0.066258736
38	0xbb54e8de	-0.0032487432
39	0x3d9b5296	0.075841114
40	0x3d1ac213	0.03778274
41	0x3dc7c8b4	0.09755078
42	0xbb820f26	-0.003969091
43	0xbdd30c0a	-0.10305031
44	0xbb226511	-0.0024779479
45	0x3d873f34	0.06603852
46	0x3c80e694	0.015734948
47	0xbd208cb5	-0.03919669
48	0x3e503ec7	0.20336448
49	0xbdba52bd	-0.09097812
50	0x3e152e6b	0.14568488
51	0x3df6c2a0	0.120488405
52	0xbd8223c0	-0.06354475
53	0x3dcdbf6d	0.10046277
54	0xbd3b79ba	-0.045770384
55	0x3c8b6068	0.017013744
56	0x3e9e211e	0.3088464
57	0x3cebac61	0.02876872
58	0x3e21bac4	0.15793902
59	0x3dc09314	0.09403053
60	0x3d38a16d	0.045075823
61	0xbde47ef6	-0.111570284
62	0xbd75c901	-0.060006145
63	0x3e117f36	0.14208683
64	0x3e191986	0.14951143
65	0x3e23cbbf	0.15995692
66	0xbdaf6e14	-0.085659176
67	0x3dfbc910	0.12294209
68	0x3e308c31	0.17240979
69	0x3d903fad	0.07043395
70	0xbd82f4c9	-0.06394345
71	0x3e2c29d9	0.16812839
72	0x3cdd3ed8	0.027007505
73	0x3e07d00e	0.1326296
74	0xbd9760f0	-0.07391536
75	0x3e3f651d	0.18690915
76	0xbb1da402	-0.0024054055
77	0x3d2e5aaf	0.04256695
78	0xbd3e95cc	-0.046529576
79	0xbd81225c	-0.06305382
80	0x3dbbeb09	0.09175689
81	0x3e863544	0.26212513
82	0x3e86b008	0.26306176
83	0x3d117928	0.035515934
84	0x3cf0e48e	0.029405858
85	0x3cf35ebc	0.029708259
86	0xbd730801	-0.059333805
87	0x3d9f8f8a	0.0779105
88	0x3d8ec265	0.069706716
89	0x3c3f1e1c	0.0116648935
90	0xbd88effa	-0.06686397
91	0x3d285067	0.041092303
92	0xbca6b979	-0.020352112
93	0x3d85e4d6	0.065377876
94	0xbd181bd3	-0.03713591
95	0xba981954	-0.0011604228
96	0x3e3e26f4	0.18569547
97	0x3c1d65a6	0.009606754
98	0xbd9542f4	-0.07288161
99	0xbcbe234a	-0.023210187
100	0xbd1c3a17	-0.038141336
101	0x3e0e59e9	0.13901486
102	0x3e0e66a3	0.1390634
103	0x3e0d6ee8	0.13811839
104	0xbd3f2dd3	-0.04667456
105	0xbc8c9d4f	-0.017164854
106	0x3d5da36c	0.05411093
107	0xbc162a13	-0.009165305
108	0x3d9eb9ef	0.07750308
109	0x3de95f53	0.11395135
110	0x3d150b72	0.03638787
111	0xbcaf1a06	-0.021374714
112	0x3e509e8c	0.20372981
113	0x3e0e8d0e	0.13920996
114	0xbb99d212	-0.004694232
115	0x3db49d84	0.08819106
116	0x3d79d25f	0.06099164
117	0xbd21d599	-0.039510343
118	0x3db6e555	0.0893046
119	0xbda1732f	-0.07883298
120	0x3ead7ada	0.3388279
121	0xbd8487c8	-0.06471211
122	0x3e3c2f73	0.18377475
123	0x3d507f8c	0.05090289
124	0x3d5ae831	0.05344409
125	0xbd02c793	-0.03192861
126	0x3de7966e	0.11307989
127	0xbd624968	-0.055245787
128	0xbceb4c5e	-0.028722938
129	0x3ca2c709	0.019870298
130	0xbc0cbe01	-0.008590222
131	0x3d3fa333	0.0467865
132	0xbb74d55d	-0.003735862
133	0xbdcdae92	-0.10043062
134	0x3e21df6c	0.15807885
135	0xbc878946	-0.01654495
136	0xbe2265b3	-0.15859108
137	0xbe1ba778	-0.15200603
138	0x3dc024fc	0.09382054
139	0x3aea9780	0.0017897934
140	0xbd181b6e	-0.037135534
141	0x3db7b247	0.089695506
142	0x3ddb555b	0.1070964
143	0x3dd9578b	0.106124006
144	0xbcd15030	-0.025550932
145	0xbe4e10aa	-0.20123544
146	0x3c5fc322	0.013657363
147	0x3d507ed0	0.050902188
148	0xbc294ac3	-0.010332766
149	0x3df2a571	0.11847962
150	0x3d85a07c	0.065247506
151	0xbb97fdab	-0.004638394
152	0x3ddd7dc8	0.108150065
153	0xbd364387	-0.044497993
154	0x39e30940	0.00043303706
155	0x3d250ce7	0.040295508
156	0x3da10cdf	0.07863783
157	0xbc42fb4a	-0.011900732
158	0x3b80e45c	0.0039334726
159	0xbd268f3d	-0.040663946
160	0xbd6e1ccf	-0.058132943
161	0x3da5314a	0.08066042
162	0x3db93328	0.090429604
163	0x3cd00ae8	0.025395826
164	0xbe12ab65	-0.14323194
165	0x3ca12cc5	0.019674668
166	0xbddb378e	-0.107039556
167	0x3c8ae83f	0.016956447
168	0xbc387e60	-0.011260599
169	0xbd0fc485	-0.035099525
170	0x3aed8f57	0.0018124384
171	0xbda96c32	-0.0827259
172	0x3d92cddb	0.0716817
173	0x3de2cc99	0.1107418
174	0x3d9a7563	0.07541921
175	0xbccd72a3	-0.025079077
176	0xbd7f121f	-0.06227314
177	0x3dd06c69	0.101769276
178	0xbe45ab80	-0.19303703
179	0x3db479e7	0.088123135
180	0xbd924f41	-0.07144023
181	0xbcc644e0	-0.024202764
182	0xbd1dc3c0	-0.03851676
183	0xbce51def	-0.027968375
184	0xbde11cfe	-0.10991858
185	0x3d45a21c	0.048250303
186	0xbdcdc72b	-0.10047754
187	0x3d847fa1	0.06469656
188	0xbdea2435	-0.11432687
189	0x3d9cbc9d	0.07653163
190	0xbe03e36c	-0.12879723
191	0x3cfc5d66	0.030806255
192	0xbda7cc6a	-0.08193286
193	0x3c4bc943	0.012438121
194	0x3d820c1f	0.06349968
195	0x3d1b42e4	0.03790559
196	0x3d5d1c4d	0.053982068
197	0xbcb6bc03	-0.022306448
198	0x3d8be1a3	0.06830146
199	0x3d2c36e6	0.042044543
200	0xbd91daa2	-0.07121779
201	0x3de96733	0.11396637
202	0xbc482ccd	-0.012217713
203	0x3d274998	0.04084167
204	0x3e69a09a	0.22815171
205	0xbd9a264f	-0.07526838
206	0xbdffbe62	-0.124874845
207	0x3cf1081c	0.029422812
208	0xbd916e24	-0.07101086
209	0x3d8a4edd	0.06753323
210	0x3db4476d	0.08802686
211	0x3c1aa5dd	0.009438959
212	0xbd98df88	-0.0746451
213	0x3e080a4e	0.13285181
214	0xbdeecebc	-0.11660525
215	0xbce6104f	-0.028083948
216	0xbdcad364	-0.09903601
217	0x3c6ef383	0.014584425
218	0x3d14fc44	0.03637339
219	0xbd87c0cb	-0.06628569
220	0xbd34d121	-0.044144753
221	0x3e24df50	0.16100812
222	0x3d351798	0.044211954
223	0x3d2d645c	0.04233204
224	0x3ea5fe3f	0.32420537
225	0x3d92a157	0.071596794
226	0xbda6bbbd	-0.08141277
227	0x3deaf3fa	0.11472316
228	0xbd4bc800	-0.04975128
229	0x3bbafa01	0.0057060723
230	0x3dc3e4dd	0.095651366
231	0x3e32d55f	0.17464207
232	0x3db5c665	0.088757314
233	0x3d2f7f1c	0.04284583
234	0xbceb35d7	-0.028712196
235	0xbdeeae2b	-0.11654314
236	0x3d6894e9	0.056782637
237	0xbb662486	-0.0035116985
238	0xbd3df41c	-0.04637538
239	0x3e28253d	0.16420455
240	0x3d826645	0.063671626
241	0xbdb1f9d4	-0.08690229
242	0x3d9fe5b9	0.07807488
243	0x3d885b5e	0.06658052
244	0xbde6b23f	-0.112644665
245	0x3e1db5ac	0.15401334
246	0xbd66686a	-0.05625192
247	0x3db3fba3	0.0878823
248	0x3eb91fd3	0.36157092
249	0x3df92cd6	0.12166755
250	0x3db078ad	0.08616767
251	0x3e05c8f8	0.13064945
252	0xbdb3ced6	-0.08779685
253	0x3a8d1797	0.0010764477
254	0xbe12b4fc	-0.14326853
255	0xbd475afc	-0.048670754

bias f4 [64]
0	0x3d9f7c41	0.077873714
1	0x3db815a5	0.08988503
2	0xbe02719b	-0.1273865
3	0xbdb12066	-0.08648758
4	0x3e2144c3	0.15748887
5	0x3d99570d	0.07487307
6	0x3c46fb53	0.012144881
7	0x3e1fa2d8	0.15589464
8	0x3cd43cf9	0.02590798
9	0xbdb7ca16	-0.08974092
10	0xbcdc2d1b	-0.026876977
11	0xbd413c56	-0.04717668
12	0xbdf55a91	-0.11980165
13	0xbd61c7f8	-0.055122346
14	0xbd8e9ea0	-0.06963849
15	0x3d9e1eed	0.077207424
16	0xbd0ba8ed	-0.034096647
17	0x3e37ada6	0.17937335
18	0xbc28a458	-0.010293089
19	0xbddec12e	-0.1087669
20	0xbd5ea7a8	-0.05435911
21	0x3cba2953	0.022724783
22	0xbd1796b0	-0.03700894
23	0xbc561f1a	-0.013068939
24	0x3e000d2d	0.12505026
25	0x3d89838f	0.06714546
26	0xbdb266b1	-0.08710993
27	0x3e382858	0.1798414
28	0xbda2f756	-0.07957332
29	0x3d53e20f	0.05172926
30	0x3e09de5b	0.13463728
31	0x3dcd492f	0.10023724
32	0xbdb5e367	-0.08881264
33	0xbda481b2	-0.0803255
34	0xbdd15edb	-0.1022317
35	0x3d536913	0.05161388
36	0x3cfa1252	0.030526314
37	0x3da184e7	0.07886677
38	0xbced577b	-0.028972378
39	0xbc8dd5dd	-0.017313892
40	0xbdfd7a13	-0.123767994
41	0x3de2b7d5	0.110702194
42	0x3ca5e841	0.020252349
43	0xbccde76c	-0.025134765
44	0xbce3a1d7	-0.027787132
45	0x3d07fb07	0.033198383
46	0x3d5d1b7f	0.0539813
47	0x3e04172f	0.12899469
48	0xbcc5359a	-0.02407341
49	0x3d0a8500	0.033818245
50	0xbdfb94b1	-0.1228422
51	0x3e3dd9c1	0.18540098
52	0x3d824c5e	0.06362222
53	0x3e04b67b	0.12960236
54	0xbbd01ddd	-0.006351216
55	0xbc2da49a	-0.010598326
56	0xbdd28d3c	-0.102808446
57	0x3deed3d3	0.11661496
58	0xbcf110bd	-0.029426927
59	0xbde09f37	-0.10967868
60	0x3d0404dd	0.0322312
61	0xbca68dfd	-0.020331377
62	0x3c9d388b	0.019192
63	0x3d660e16	0.056165777

weight f4 [64, 64]
0	0xbd033ea1	-0.03204215
1	0x3a2c4381	0.0006571338
2	0x3dde520e	0.108554944
3	0xbdc0fc99	-0.09423179
4	0x3e161702	0.14657214
5	0x3df1f8b4	0.118150145
6	0xbd33d15b	-0.04390083
7	0x3e058632	0.13039473
8	0xbd84d2f7	-0.06485551
9	0xbc63dbc5	-0.013907378
10	0xbe18aed6	-0.14910445
11	0x3e1704a3	0.14747863
12	0x3dcd8f06	0.10037045
13	0xbd26c433	-0.040714454
14	0x3bd97c27	0.0066371146
15	0x3ce9d675	0.028544644
16	0xbba7e9e8	-0.0051243193
17	0xbc3c17d9	-0.011480295
18	0xbbf17d16	-0.0073696477
19	0x3ba9c4e8	0.0051809438
20	0xbe0d8654	-0.13820773
21	0x3dac92e3	0.08426454
22	0xbcc461da	-0.02397244
23	0x3e3e6ded	0.18596621
24	0xbbcad740	-0.0061902106
25	0x3e2bbb81	0.16770746
26	0x3d378640	0.044805765
27	0x3e11d757	0.14242302
28	0x3dd14443	0.10218098
29	0x3e33597f	0.17514609
30	0x3dbc5e5c	0.09197685
31	0xbd1b545e	-0.037922256
32	0xbdb0b4c6	-0.0862823
33	0x3dd2c7bd	0.10292003
34	0x3cc34b32	0.023839567
35	0x3dc9a81c	0.098465174
36	0x3d86d6ca	0.065839365
37	0x3e11f49a	0.14253464
38	0x3c42ce32	0.011889981
39	0xbce74fa7	-0.028236223
40	0xbd8fa843	-0.07014515
41	0x3d255f19	0.040373895
42	0xbdd579e6	-0.10423641
43	0xbd9c97bf	-0.07646131
44	0x3e54715b	0.20746367
45	0xbd541eb6	-0.0517871
46	0x3a9e6edb	0.0012087481
47	0x3da77bdd	0.08177922
48	0xbda8b7f9	-0.08238215
49	0xbd608c33	-0.054821204
50	0x3d80d728	0.06291038
51	0x3d8bd1e4	0.06827143
52	0x3e042b4b	0.1290714
53	0x3e098c9e	0.13432547
54	0x3e0bae32	0.13640669
55	0x3e40b9ca	0.18820873
56	0xbda23d68	-0.079218686
57	0xbd10a7be	-0.03531622
58	0x3d589889	0.052879844
59	0xbdddd643	-0.10831883
60	0x3d858713	0.06519904
61	0x3dcace9b	0.09902688
62	0x3d0bc583	0.03412391
63	0x3e47e3a2	0.19520429
64	0xbe0824b3	-0.1329525
65	0x3d369f9c	0.04458581
66	0x3d1eccfa	0.0387697
67	0x3bb15e0c	0.0054128226
68	0x3dd21624	0.10258129
69	0x3cf16815	0.029468575
70	0xbda1289b	-0.07869073
71	0x3ce57ba1	0.028013052
72	0xbc867eda	-0.01641791
73	0x3da4f715	0.0805494
74	0xbdbf80b4	-0.0935072
75	0xbb6cbc54	-0.0036122994
76	0xbda32681	-0.079663284
77	0xbe1ed158	-0.15509546
78	0x3dc0305d	0.093842246
79	0xbd936148	-0.07196289
80	0x3d798626	0.06091895
81	0x3d3011f4	0.04298587
82	0x3d36eecd	0.044661332
83	0x3cd2bcdc	0.02572482
84	0xbdf0d347	-0.11759048
85	0xbceb94ad	-0.028757418
86	0xbd390bce	-0.045177273
87	0xbcc3067e	-0.023806807
88	0x3de824d6	0.11335151
89	0xbd27f2b9	-0.041002963
90	0xbcb9200b	-0.022598287
91	0xbc98e1e7	-0.018662406
92	0x3e1ae623	0.15126853
93	0x3dedf3a0	0.116187334
94	0x3dd143fe	0.102180466
95	0x3dba646d	0.09101186
96	0xbdfb12a7	-0.12259417
97	0x3dd86140	0.10565424
98	0x3d65e50b	0.056126636
99	0xbd9df868	-0.07713395
100	0x3cddba83	0.027066475
101	0xbdb8a34b	-0.09015521
102	0xbd162c31	-0.036663238
103	0xbb1acccf	-0.002362061
104	0x39eb3278	0.00044860295
105	0xbde77ec5	-0.11303476
106	0xbcee904e	-0.029121544
107	0xbc41b213	-0.011822241
108	0xbdee2679	-0.11628432
109	0x3dd27d52	0.10277809
110	0x3d0d77cf	0.034538087
111	0xbdce2c1d	-0.10067008
112	0xbd813dee	-0.0631064
113	0x3d9c6c6f	0.076378696
114	0x3b0ea790	0.0021767356
115	0x3c71f439	0.0147677
116	0xbca9c594	-0.020724095
117	0x3cc28cec	0.023748837
118	0xbd06ef63	-0.03294314
119	0xbc610201	-0.013733388
120	0x3cd8559b	0.026408007
121	0x3db7df4f	0.089781396
122	0xbd968baa	-0.073508576
123	0xbde0dc35	-0.10979501
124	0x3c212df4	0.009837616
125	0xbd0a058e	-0.033696704
126	0x3d854b8b	0.06508549
127	0xbcf1b28d	-0.029504085
128	0x3d93bd50	0.07213843
129	0x3e0b6481	0.13612558
130	0x3dc98d3a	0.0984139
131	0xbced99ae	-0.029003944
132	0x3c2bfade	0.010496823
133	0x3da8bd66	0.0823925
134	0xbb9bd48a	-0.0047555612
135	0x3da9e745	0.08296064
136	0x3de3a365	0.111151494
137	0x3d4b636d	0.049655367
138	0x3b7378c7	0.0037150846
139	0xbdfe1952	-0.12407173
140	0xbc174b19	-0.009234213
141	0x3d309c12	0.04311759
142	0xbdd39ef3	-0.103330515
143	0xbd2e0dc4	-0.042493597
144	0x3d5d9c7d	0.054104317
145	0xbd295898	-0.041344255
146	0x3cf10d09	0.029425161
147	0xbde06971	-0.10957611
148	0x3bc40dd0	0.005983092
149	0x3dffd06e	0.12490927
150	0x3d4af341	0.04954839
151	0xbdb5f27b	-0.0888414
152	0xbdb164ec	-0.086618274
153	0xbdb69830	-0.08915746
154	0x3d470bd1	0.048595253
155	0xbdd1a65b	-0.10236808
156	0xbc906fc4	-0.017631419
157	0xbe264c60	-0.16240072
158	0xbe1317f8	-0.14364612
159	0x3c51c9bf	0.012804448
160	0x3db05d4b	0.08611544
161	0xbd812d0c	-0.0630742
162	0xbd5c1026	-0.053726338
163	0xbd7328d9	-0.059365127
164	0x3bce9617	0.006304513
165	0xbc815c65	-0.015791127
166	0x3c3caa7c	0.011515256
167	0x3e2ab65b	0.16671126
168	0xbd04eb9e	-0.032451265
169	0x3d779890	0.06044823
170	0x3d2328c3	0.039833795
171	0x3e00e693	0.12587957
172	0xbd1dcf0c	-0.038527533
173	0xbc8ef0ce	-0.017448809
174	0x3d5f2fb2	0.054488845
175	0xbb1f0546	-0.0024264618
176	0x3de2d681	0.110760696
177	0xbda29045	-0.079376735
178	0x3ce852fe	0.028359886
179	0xbd181d22	-0.03713716
180	0xbdbaf7b3	-0.09129276
181	0xbdd79359	-0.10526151
182	0xbc8506da	-0.016238619
183	0xbd483b3e	-0.048884623
184	0x3d9d4e7f	0.076809876
185	0x3dd55f89	0.104186125
186	0x3d70d37f	0.05879545
187	0x3d12e764	0.035865203
188	0xbdf5ffa1	-0.12011648
189	0xbd84ffa6	-0.064940736
190	0xbc475a08	-0.012167461
191	0xbd5f62b2	-0.054537483
192	0x3dbfc069	0.09362871
193	0x3e212d8e	0.15740034
194	0xbce3e526	-0.027819227
195	0x3d976835	0.07392923
196	0xbda26d43	-0.07930996
197	0x3d747c27	0.059688713
198	0xbd60b91e	-0.05486404
199	0x3c4d110d	0.012516272
200	0x3e00f627	0.125939
201	0xbd423501	-0.04741383
202	0x3d8da471	0.0691613
203	0xbcdc0126	-0.026856016
204	0x3c888828	0.016666487
205	0xbc2a89d5	-0.010408838
206	0xbdc5157a	-0.09623237
207	0x3d9ee0a8	0.077576935
208	0x3e2a9c3e	0.16661164
209	0x3d92ce29	0.07168228
210	0x3d22a6e2	0.039709933
211	0x3d9feb7a	0.078085855
212	0x3e341aa8	0.17588294
213	0x3daf6f48	0.08566147
214	0x3c135fc4	0.008995
215	0xbdf50df7	-0.11965554
216	0xbc382c87	-0.011241085
217	0x3c5511f3	0.013004768
218	0x3e0dbb34	0.13840944
219	0x3c295421	0.010334999
220	0xbd292244	-0.041292444
221	0xbe2dfc3e	-0.16990754
222	0xbe0d7135	-0.13812716
223	0x3e09ea0c	0.13468188
224	0x3e2f3688	0.17110646
225	0x3d34e72d	0.04416578
226	0x3d128879	0.03577468
227	0xbce24d98	-0.02762489
228	0xbc9f12e7	-0.019418193
229	0xbe26d8b1	-0.16293599
230	0x3dafede5	0.08590297
231	0x3dbb5007	0.091461234
232	0x3de495c5	0.11161379
233	0x3dfdf2ee	0.12399851
234	0x3d961fd2	0.07330288
235	0x3c9f1f6f	0.019424168
236	0xbe317b0d	-0.17332096
237	0xbd6e0259	-0.058107708
238	0xbde650d7	-0.11245888
239	0xbda7e9c3	-0.081988834
240	0x3c53a477	0.012917629
241	0xbc83a55b	-0.016070059
242	0x3d5abbe6	0.05340185
243	0xbdf20a47	-0.118183665
244	0xbdcae14e	-0.09906255
245	0xbd55f710	-0.05223757
246	0xbd8238c5	-0.06358484
247	0x3d108ca3	0.03529037
248	0x3e1101a7	0.14160787
249	0x3d9cea37	0.076618604
250	0x3dca09e1	0.098651655
251	0xbd4240a7	-0.04742494
252	0xbc090a6e	-0.008364303
253	0xbdaa53cb	-0.083167635
254	0xbda8d6d6	-0.08244102
255	0x3da209cd	0.079120256

bias f4 [64]
0	0xbdbd92be	-0.092565045
1	0x3dc528f9	0.096269555
2	0x3cb875c7	0.022517098
3	0x3d3a5224	0.04548849
4	0x3db9fd0f	0.0908147
5	0x3d70df3a	0.058806635
6	0xbd4508e0	-0.048104167
7	0xbd18a03a	-0.03726218
8	0xbce355bf	-0.027750848
9	0xbc72efd4	-0.014827687
10	0x3d26aefd	0.040694226
11	0xbdaf360d	-0.08555231
12	0xbd81053a	-0.06299825
13	0x3d9e29d3	0.07722821
14	0x3d63044b	0.055424016
15	0xbb08119e	-0.0020762454
16	0x3d89f023	0.067352556
17	0xbc91321b	-0.017724087
18	0xbcef2600	-0.029192924
19	0x3d1bcc64	0.03803672
20	0x3a6c5aa1	0.00090161903
21	0xba644318	-0.00087075075
22	0xbc9fb030	-0.019493192
23	0xbcf96f13	-0.030448472
24	0x3dd7304b	0.10507258
25	0x3d6f74c0	0.05846095
26	0xbc028d3d	-0.007968244
27	0x3d6a3e26	0.057188176
28	0xbd6464d7	-0.05576023
29	0xbcd9070d	-0.02649262
30	0xbd1266dd	-0.03574263
31	0x3d3c3cae	0.045956306
32	0x3daa6345	0.083197154
33	0x3dbe54cf	0.0929352
34	0x3e00c81f	0.1257634
35	0x3d22c7df	0.039741393
36	0xbd9efd01	-0.077631004
37	0xbbfbf75b	-0.007689399
38	0xbd8780fa	-0.06616397
39	0xbdcc9598	-0.0998947
40	0xbd395acc	-0.045252606
41	0x3e09a659	0.13442363
42	0x3dac5227	0.08414107
43	0x3d4bacb8	0.049725264
44	0x3d5871c1	0.05284286
45	0xbdcd5250	-0.100254655
46	0xbde6c8b6	-0.11268751
47	0x3d9ae069	0.07562334
48	0x3df2a88a	0.118485525
49	0x3d8e5ddd	0.06951497
50	0xbdaa86a7	-0.08326464
51	0x3df655bf	0.120280735
52	0x3c23d3f1	0.009999261
53	0xbd5d5157	-0.05403265
54	0xbda1db49	-0.079031534
55	0x3e091562	0.13387063
56	0x3d24402f	0.040100273
57	0xbdbde3fe	-0.09272002
58	0x3d98eadb	0.0746667
59	0x3d819120	0.063265085
60	0xbe051b2f	-0.12998651
61	0x3e037efa	0.12841406
62	0x3d80a6bc	0.06281802
63	0x3dbf74fd	0.093484856

weight f4 [1, 64]
0	0xbdaa3dfa	-0.08312602
1	0xbc02519b	-0.007954027
2	0x3d302e69	0.04301301
3	0x3dbf44c1	0.09339286
4	0x3e29edf9	0.16594686
5	0x3d9d7e0a	0.07690056
6	0x3d134fe7	0.035964873
7	0x3d9ca5ef	0.07648837
8	0xbd8d1723	-0.068891786
9	0xbaa8060f	-0.0012819188
10	0xbd85ffa9	-0.06542904
11	0x3e05fd97	0.13085018
12	0xbdeb5621	-0.11491037
13	0x3d805c52	0.06267609
14	0xbdc989ab	-0.09840711
15	0xbe4a5188	-0.19757664
16	0x3e2b9718	0.16756856
17	0x3d892ae4	0.06697634
18	0x3e05ba82	0.13059428
19	0xbe09f84d	-0.13473625
20	0x3d4e5250	0.050371468
21	0xbdb74d0f	-0.08950245
22	0xbd6ad90b	-0.057335895
23	0xbe1f9082	-0.15582469
24	0xbdebef0a	-0.115202025
25	0x3d9643b6	0.073371336
26	0xbd99a77f	-0.075026505
27	0xbe1d55a8	-0.15364707
28	0x3db67d08	0.089105666
29	0xbdc78912	-0.09742941
30	0x3d176e44	0.036970392
31	0x3dbb04d5	0.09131781
32	0x3e1b37f3	0.15158062
33	0xbd849580	-0.06473827
34	0xbe0ab48f	-0.1354544
35	0x3d5604aa	0.05225054
36	0xbdd09c15	-0.1018602
37	0x3df82792	0.121169224
38	0x3dc2cc92	0.09511675
39	0x3d673b27	0.056452896
40	0xbd95e78b	-0.07319554
41	0xbd608bbd	-0.054820765
42	0xbe177b8c	-0.14793223
43	0xbddc6f19	-0.10763378
44	0x3e05f9fc	0.13083643
45	0x3dde6cf7	0.10860627
46	0x3e0e9024	0.13922173
47	0x3d25074a	0.040290155
48	0xbe3b1eee	-0.18273517
49	0xbdc9a4dd	-0.09845898
50	0xbe0a616a	-0.13513723
51	0xbe36f223	-0.17865805
52	0xbe3328a7	-0.17495976
53	0x3d15ac9e	0.036541574
54	0xbe1d991e	-0.15390441
55	0xbe066a28	-0.13126433
56	0x3dd90c99	0.10598106
57	0xbe2827a8	-0.16421378
58	0xbd824136	-0.06360094
59	0xbdafaa21	-0.085773714
60	0xb9de6f39	-0.00042426007
61	0xbde1d943	-0.110277675
62	0xbd345bd3	-0.044032883
63	0xbd311460	-0.04323232
