models/model_nlup_NNplus_100_04_06_13_54.pt (torch, 20823 bytes, 5 tensors)

weight f4 [64, 4]
00000000: b991 8cbd ced7 20bf d4a9 38bf cd66 b2bf
00000010: b7e4 6cba 1193 cebd 0328 7a3d 67a8 b43b
00000020: 8727 40bd d5ed 25be 4037 f5be 109e ec3c
00000030: a66d b83f 88d6 ac40 9449 413e 959e 6a3e
00000040: c324 36bd b698 c0bd 20fe 68be 10d1 cd3c
00000050: 335d 02c0 9e55 c0c0 737a a3c0 ae4c f0be
00000060: ea45 d53f 7de8 fa40 4c36 e540 5870 763f
00000070: 056d 9fbd 64cc b8be 2495 10c0 d8f1 60bd
00000080: a136 2cbc cec4 b7bc f7ae 9cbd 5ed1 b83c
00000090: eef5 f2be 10d0 80bf f102 c840 0551 5f3f
000000a0: 1658 61bd e4b2 0640 1fa1 1840 9a45 d0bf
000000b0: 9672 92bd 4c70 41be d85b 12be d6c4 033d
000000c0: 96cd 48bc 6f27 6e3c 219a 0e3d bf4a 2b3c
000000d0: 2067 32be 1e47 c6be dfc3 23be 8601 7d3d
000000e0: f833 f9be ed16 5041 3fc8 fd3f a3e5 34be
000000f0: a7e5 dd3c 762e 783e 21fa 883e 49e4 f8bb
00000100: a614 30c0 7864 b6c0 1e62 2dbe efb6 acbd
00000110: e793 813f 3c27 f8c0 66e5 763f 3a71 4d3f
00000120: acb1 d13f 4093 3e41 5f0a c63f 6867 1d3f
00000130: 45f0 c2bf f376 cf40 0e10 8440 9c6c 60bf
00000140: ecd2 7e3f 0749 8abf b956 1440 4df3 92be
00000150: 7a91 7abd 285c 3dbe d450 a7be 2849 013d
00000160: 030c b83c b228 ba3d 19c5 16be b50e a53b
00000170: a5de 24c0 3b25 31c1 11c6 f1be 9780 553f
00000180: c0a2 7abe ee6a 37bf 2f1f 30c0 da52 50bb
00000190: ac75 e63f 7a8a 0441 b3d8 b43f 4fdd 80be
000001a0: 0ef6 1f3f caae 1dc1 9b22 37be f904 3dbf
000001b0: d1c8 3cbf 6304 42c0 1a68 8dbf d03d c6bf
000001c0: 19c3 2c3d 71ae 023e 2965 cd3e 3efd 7fbb
000001d0: 1795 853c f06d 29b9 5fef 29be 86f3 023c
000001e0: c7f1 bf3c b57f 1a3e 049e 013f 1298 36bb
000001f0: af53 79bf 656c fec0 3c44 cdc0 e2ba 5d3f
00000200: 47b4 2240 5d7d c240 5565 aa40 805c 48bf
00000210: 1c19 89c0 b036 3cc0 8cee 74bf 9c82 e2bf
00000220: 46df 2abe f147 e63f 1de1 7240 35cf 86bf
00000230: a760 4ebd 5bd2 37be 9fe1 b2bd 0c0f ec3c
00000240: ab1c a13f 32c6 84bf 4cba c6be 193c b7bf
00000250: 0288 97be 0b56 e2bf 692c d740 dbf7 803d
00000260: 7fe8 fdbf 90b6 86bf 0110 80bf f3ef 48be
00000270: 010f cabf 835b 1040 291e 7b3f b11b 0c3f
00000280: e950 273a 28f7 2f3d 241d 9b3d fec2 f1b9
00000290: e042 3740 5b5b cac0 7fbb b8be 375b eabf
000002a0: 6334 353d 2025 db3d 1177 eabd 6391 13bc
000002b0: a694 dd3f 1b77 2340 baaf c3c0 982d 173e
000002c0: 549d abbe 32c3 79c0 7461 0240 2beb f0bd
000002d0: 0eac 773e 3a21 cc3e 5b21 0bbf 61f1 2f3f
000002e0: 4be6 94be ce5b 77bf 5ab0 9c3f bcd5 4cbb
000002f0: 224d af3f 2efa 2041 955e d7be a62a 1abf
00000300: 8ee0 68bc 09d8 313d b46f 783e 6b9a 373d
00000310: 3141 9640 ad34 6d40 23fd f6bc 8677 f5bf
00000320: 9d19 2840 8c8b c93f 40b0 e53f ae8f 483e
00000330: 82b3 21c0 b0f7 24c1 0fae 8ebf 5c9d 14bf
00000340: e0c9 1bbd d969 61bd 5563 293c aaac 663c
00000350: 5276 613d 8cc9 29be 84a1 843f 2f10 bbba
00000360: 2742 773f c486 a0c0 0e9d b6c0 be28 863e
00000370: 6862 24bd b72b 833f 8df2 4b3e 4b3f 2ec0
00000380: 0187 e1be 9fcf 853f a71a abc0 dc84 263f
00000390: e09f 4140 2367 ae40 7a02 9f3f 5906 be3f
000003a0: c8e7 1340 d898 9f40 fd5e f140 8817 863d
000003b0: ea54 8dbd 9fb5 09be bf8c 51be 782d 0b3d
000003c0: 813e aebf 96ed 02c1 3c5a 9f3f 862d 3abf
000003d0: 1490 b8be aa6e a940 46cd d140 bc72 513f
000003e0: 3d9b f73e 4671 6b3f 3c57 d6c0 cd45 a93e
000003f0: f057 823e e6bb 7740 a04a ce3f baf9 a93f
-0.06863732 -0.6282929 -0.7213414 -1.3937622 -0.0009036767 -0.100866444 0.061073314 0.005513239
-0.046912696 -0.16204007 -0.47893715 0.028883964 1.4408462 5.401188 0.18875724 0.22912057
-0.044468652 -0.09404127 -0.22753191 0.025124103 -2.0369384 -6.0104513 -5.1086974 -0.46933502
1.6661961 7.84088 7.162878 0.9626517 -0.07784466 -0.36093438 -2.2591028 -0.05491814
-0.010511071 -0.022432711 -0.076505594 0.022560772 -0.47453254 -1.0063496 6.250359 0.87233
-0.055015646 2.1046686 2.384834 -1.6271241 -0.07150762 -0.18890494 -0.14292848 0.03217014
-0.012256047 0.014535769 0.034814958 0.010454833 -0.17422152 -0.38726133 -0.15992688 0.06176903
-0.48672462 13.005597 1.9826735 -0.17665724 0.027087046 0.24236473 0.26753333 -0.007595573
-2.7512603 -5.6997643 -0.1693196 -0.08433329 1.0123261 -7.7547894 0.96443784 0.80250895
1.6382346 11.91095 1.5471915 0.6148591 -1.5229574 6.48327 4.12696 -0.87665725
0.9954059 -1.0803536 2.3177931 -0.2870125 -0.061173894 -0.18492186 -0.32678854 0.031563908
0.022466665 0.09089793 -0.14723624 0.0050371536 -2.5760891 -11.071589 -0.47221425 0.8339934
-0.24476147 -0.71647537 -2.7519033 -0.0031787665 1.8004661 8.283808 1.4128631 -0.25168845
0.62484825 -9.855173 -0.17884295 -0.7383571 -0.7374392 -3.0315177 -1.1047394 -1.5487614
0.042178247 0.12761857 0.40116242 -0.0039060856 0.016306443 -0.00016158051 -0.16595219 0.007992631
0.023430718 0.15087779 0.5063174 -0.0027861637 -0.97393316 -7.9507318 -6.4145794 0.86613286
2.5422533 6.077803 5.3248696 -0.78266144 -4.284315 -2.9408379 -0.95676494 -1.7696109
-0.16686735 1.7990705 3.7949898 -1.0531985 -0.050385144 -0.17951338 -0.0873444 0.028815769
1.2586874 -1.0372984 -0.38814008 -1.4315215 -0.29595953 -1.7682508 6.724171 0.06297275
-1.9836577 -1.0524464 -1.0004884 -0.19622783 -1.5785829 2.2555854 0.98092896 0.54729754
0.0006382601 0.042960316 0.075739175 -0.00046112383 2.8634567 -6.323652 -0.36080548 -1.8309087
0.044239413 0.107004404 -0.11448491 -0.009006831 1.7310989 2.5541446 -6.115201 0.14763486
-0.3351847 -3.9025388 2.037198 -0.11763605 0.24186727 0.398691 -0.5434777 0.6872769
-0.2908195 -0.9662446 1.2241318 -0.0031255325 1.3695414 10.061079 -0.42064348 -0.60221326
-0.014213694 0.043418918 0.24261361 0.044825 4.695458 3.70634 -0.030150002 -1.9177101
2.6265633 1.5745711 1.7944412 0.1958606 -2.5265813 -10.310471 -1.1146868 -0.5805261
-0.03803432 -0.055032585 0.010338624 0.014079252 0.05504448 -0.1658079 1.0361791 -0.0014271791
0.96585315 -5.016451 -5.7066717 0.2620296 -0.04013291 1.0247716 0.19916745 -2.722613
-0.44048312 1.0453986 -5.3470035 0.6504648 3.025383 5.45009 1.2422631 1.4845687
2.3110218 4.9874077 7.5428452 0.06547457 -0.06900962 -0.13448189 -0.20463847 0.03397891
-1.3612825 -8.183004 1.2449412 -0.72725713 -0.36047423 5.294759 6.556308 0.81815696
0.48360625 0.91969717 -6.6981487 0.33061066 0.25457716 3.8708434 1.6116524 1.3279335

bias f4 [64]
00000000: 80f1 9340 5c20 df3e c62b 0c3d 4eb4 0fc0
00000010: 329e dd3d c34b 0abf 36c2 d1bf 2fd8 f33e
00000020: 1ade 2c3e 141f babf 1ad4 a2c0 a875 65c0
00000030: 75c4 e1bf da53 51c0 99ea b7be 73a4 a4bf
00000040: c4d0 dbbe d045 cd3e 197c 72bf b6b7 13bc
00000050: ace4 fd3f 326e f4be 234b 3a3e a6f4 a33f
00000060: c12e 63bf ed31 6dbf ab09 4bbf 22bf 4ec0
00000070: 63bb 413f 2c6f 133f 3ce9 39bf 5879 04c0
00000080: 31fc 573f 9314 25bf b3b2 1c3f fd6d 1bc0
00000090: 9041 4dc0 046e 8bbf 0ebd f73f f171 87bf
000000a0: 063f d03e 7e37 7cbf fb77 843f a8d5 1b3d
000000b0: a045 cb3f ff6a ac3f 3b6b c93f de3c 24c0
000000c0: be97 5a3f 6fdc 08be d0a6 6d3e 7900 afbf
000000d0: ff36 2dbf 4faf af3f 4e3f b7bf 5b1e 42c1
000000e0: 6957 54bf c4ea 3fc0 af89 55be b46d 0cbf
000000f0: fb70 2dc0 dcca d2bf bb15 53c0 d080 0ac0
4.62323 0.43579376 0.034221433 -2.24538 0.10821189 -0.54021853 -1.6387393 0.47625872
0.168816 -1.4540734 -5.0883913 -3.5853062 -1.7638079 -3.270743 -0.3592117 -1.2862686
-0.42932713 0.40092325 -0.9472061 -0.009015968 1.983541 -0.47740322 0.18192725 1.2809036
-0.88743216 -0.92654306 -0.7931163 -3.2304158 0.75676554 0.5759151 -0.7262151 -2.0699062
0.8436919 -0.6448452 0.61210173 -2.4285882 -3.2071266 -1.0892949 1.935457 -1.0581647
0.40673083 -0.98522174 1.0349115 0.038045555 1.5880623 1.3470153 1.5735849 -2.566215
0.8538779 -0.13365339 0.23208165 -1.3672019 -0.6766204 1.3725375 -1.4316194 -12.132411
-0.8294588 -2.998704 -0.20853303 -0.54854894 -2.7100208 -1.6468158 -3.2982013 -2.164112

weight f4 [64, 64]
00000000: b4a9 ef3d 9557 903e 97f7 923e f62d 2ec0
00000010: e80e cb3e 1b25 c7be 1bb1 54c0 c7a9 ed3d
00000020: 847a 553e 4cf3 9b3e a893 663f 5352 5b3e
00000030: fe89 c63e 6c1b 673e 7909 b7bf b211 003f
00000040: 905a 8c3e 76ce 94be 5236 3940 34ab ecbe
00000050: 7889 86be 5f93 1c3e 372e 1f3e 5eba 0d3e
00000060: 757e b93d efa9 15bf 9eec 74be c206 c83d
00000070: c100 b23e 5609 263e afaf 003f 6c7f ddbe
00000080: c359 94be a10f 873e 71a6 fb3e a357 1c3e
00000090: dc29 013f 35e3 e83e 2d3e 863e 7062 adbe
000000a0: 803e d63e 4733 d2ba 2925 a63e 5a2b 19bf
000000b0: 966f cb3d 3e55 0c3d b078 063e d14c a1be
000000c0: 0611 a73e 85d2 8f3e d854 403e ff64 ee3d
000000d0: 1071 883e e506 ea3d 7918 80bc dc98 fd3e
000000e0: 0c34 96be a2e6 b93e ef23 bbbf fd00 c83e
000000f0: 8047 243e facc 4bbf 3c03 4cbf 8c51 563e
00000100: d3d9 133f 7c98 313f 4c11 f53e 9c58 fa3f
00000110: 03e3 103f ae91 6d3e d7cc ab3f 83d9 123f
00000120: c30f 003f 35f6 d63f 9a4a 8bbf 48c0 0f3f
00000130: c93f 1b3f 3db7 343f f03f 09c0 209f 213f
00000140: 533f 49be 1367 1bbf 578b ddc1 71bf c23e
00000150: 2f44 993f 9894 133f 22e8 473f 9dd9 1ebf
00000160: 9673 183e 7ea4 7340 cb91 363e 24cd 90be
00000170: 4f81 343f 557f 3e3f ddba 213f 735e 65be
00000180: d3e4 a5bf dcb4 c6be 978e c1bd 6485 0c3f
00000190: 9d3c b9bf 1ef7 6bbf 81f6 acbe 9b78 34c0
000001a0: b141 413f 62d9 55be c3f1 2c3f caec e8be
000001b0: 7ef7 273f aab4 8fbf dd27 0f3f 1810 9540
000001c0: 684c 1b3f 34aa 0ebf 6257 863d 8583 96be
000001d0: 29bb 1d3f 7683 2c3f 8fc4 adbe 01bc 5cc0
000001e0: d9d9 983f 2f4a 6ebf dfa6 61c0 ebb5 b13e
000001f0: 3f97 0fbe d582 3f3f 6bde aa3e 8dda 1e3f
00000200: 6f7c b33f 0871 1b3f bc3f 073f fa41 ac3f
00000210: c845 363f ac02 4fc0 527c 35c0 fd91 4a3f
00000220: 5f54 2d3f 58bc babe fabb 783f 12c5 733e
00000230: c9cc a63e 13e2 a23e b095 46c0 8f1d 023f
00000240: 804e 8b40 48be e83f 77d8 6cc0 78a1 c43f
00000250: cf78 d83e 0dfc fd3e 45c0 153f 6d2c 50c0
00000260: 65fd ed3e 35ea 7ec0 31b6 abbf b135 ba3f
00000270: 8337 1d3f 8b3c 1e3f 54b1 113f a4b9 e9bf
00000280: 9c47 64c0 c2e3 c6c0 71c2 f63f 02c6 963e
00000290: d539 0640 e747 5440 53f5 7a40 c9ad 963d
000002a0: a966 2e3f 6438 dc3e d872 3b3f 81fa 20c0
000002b0: 765f 393f 0f33 813f 0d9c 673f 2efa 8240
000002c0: 8353 363f c766 20bf 34d6 04bf 106e 15c1
000002d0: df95 223f cd31 513f 2d00 7f3d ead0 eec0
000002e0: 4f9a 56be 9d46 ed3e 1692 d9bf c7c9 373f
000002f0: 5539 58c0 3dd8 08c1 5006 043f 439f 3540
00000300: d088 313e d076 e43e 9fac f63e 259b edbe
00000310: 2f29 d03e c695 a9bf b2a8 d2be ebdb a63e
00000320: 63a1 003f cfe8 5dbd 0214 af3e 89d3 f23e
00000330: b2e9 bb3e 4d83 0a3f d4fd 533e 5a42 b13e
00000340: 0aeb 8e3f 34ed b03e a92b b4be 9eb2 d6be
00000350: e878 203e b52d e73e 5247 073f a262 c4be
00000360: 1b2a fe3d 6e34 6fbe d5a5 85bf a1e2 c53d
00000370: ea7f e83e ea7a d53e 407b aa3e ab0f 1ac0
00000380: a839 bb3e d019 5e3f 8cf5 98be 6d82 103f
00000390: 4b6b 04bf 91ae 21be b003 58bf aae6 b93d
000003a0: 5afa 213f ccbf d13d bf1f 233f 1f03 f93c
000003b0: ba31 9cbc 7ed7 143f 63c1 0b3f f141 a0bd
000003c0: ef4c 103f 1740 cebe 5cf7 92be 99dc a3c0
000003d0: bab7 033f 7a5e e93e c573 9a3f f6cf abbe
000003e0: 3b13 88bf 327b a13e cdaf 88bd 9f72 b93e
000003f0: da12 89c0 e903 883e 9b81 b1be 5715 52bc
0.1170229 0.2819182 0.2870452 -2.7215552 0.3965981 -0.38895497 -3.3233097 0.11604648
0.20847517 0.30459058 0.90069056 0.21418123 0.38777155 0.22569054 -1.4299766 0.50027
0.27412844 -0.29063767 2.8939404 -0.46224368 -0.26276755 0.15290593 0.15544973 0.13840625
0.09057323 -0.58462423 -0.23918387 0.09766914 0.347662 0.16214499 0.5026807 -0.43261278
-0.28974733 0.2637911 0.49150422 0.15267806 0.504545 0.45485845 0.2621931 -0.33864164
0.4184456 -0.001603701 0.32450226 -0.59831774 0.09933393 0.03426098 0.13131976 -0.3150392
0.32630175 0.280903 0.18782365 0.11640357 0.2664876 0.11427096 -0.01563667 0.49530685
-0.29336584 0.3630877 -1.4620341 0.39063254 0.160429 -0.79609644 -0.79692435 0.20929545
0.5775425 0.693733 0.4786476 1.9558291 0.5659639 0.23200104 1.3421887 0.57363147
0.5002405 1.6793886 -1.0882142 0.5615277 0.60644203 0.705921 -2.1445274 0.6313343
-0.19653063 -0.60704154 -27.693037 0.38036683 1.1973933 0.5764861 0.7808858 -0.620508
0.14887843 3.8069148 0.17829053 -0.2828151 0.7050981 0.74413043 0.63175756 -0.22399311
-1.2960457 -0.3880986 -0.09451025 0.5489104 -1.4471623 -0.92173946 -0.33781818 -2.8198612
0.7549086 -0.20883706 0.675564 -0.45493156 0.6561202 -1.1227009 0.559202 4.6582146
0.6066346 -0.5572846 0.06559636 -0.29397216 0.6161371 0.67388093 -0.33939025 -3.4489748
1.1941482 -0.93081945 -3.52581 0.34709105 -0.1402254 0.7480901 0.33372816 0.6205223
1.4022349 0.60719347 0.52831626 1.3457634 0.7120023 -3.234538 -2.835713 0.7912901
0.67706865 -0.3647182 0.9716183 0.23805645 0.32578114 0.31813106 -3.1028862 0.5082635
4.3533325 1.8183069 -3.700712 1.5361776 0.4227967 0.49606362 0.58496505 -3.2527115
0.46482387 -3.9830449 -1.3414975 1.4547635 0.6141283 0.6181113 0.56911206 -1.8259778
-3.5668707 -6.2153025 1.9278089 0.29447943 2.0972798 3.3168886 3.9212234 0.07357366
0.68125397 0.43011773 0.7322211 -2.5152895 0.72411287 1.0093707 0.9047249 4.0930395
0.7122118 -0.62656826 -0.5188935 -9.339371 0.63509935 0.81716615 0.062256027 -7.463002
-0.20957302 0.46342936 -1.6997707 0.7179226 -3.3784993 -8.552793 0.5157213 2.8378456
0.17337346 0.44621897 0.48178574 -0.46407428 0.4065642 -1.3248832 -0.4114433 0.3258966
0.50246257 -0.0541771 0.34194952 0.47427014 0.36701733 0.541066 0.20702296 0.34620935
1.1165478 0.34555972 -0.3518956 -0.4193315 0.15671122 0.4515206 0.528432 -0.383565
0.12410375 -0.23359844 -1.0441233 0.09662367 0.4541009 0.41695338 0.33297157 -2.4072063
0.36567426 0.86758137 -0.29874837 0.56449014 -0.51726216 -0.15789248 -0.84380627 0.09077199
0.6327263 0.102416605 0.63720316 0.030396996 -0.01906668 0.58141315 0.5459196 -0.07825077
0.5636739 -0.40283272 -0.28704345 -5.1206784 0.5145222 0.45579892 1.206658 -0.335571
-1.0630869 0.31539303 -0.06674156 0.3622026 -4.283551 0.26565483 -0.34669194 -0.012822471

bias f4 [64]
00000000: 41dc 78bd 5da5 ec3e da40 9e3f 2cc8 423f
00000010: 31ed 083f ffc2 c9bf 5c26 993f 3072 323f
00000020: 8b90 9f3f 11f3 683f c63a a43f 43fe 2b3f
00000030: b6ab 893f 0a87 9d3f 0837 4b3f 8d23 1bc0
00000040: 955f 57be fece 943f 832f 693f 6eda 313f
00000050: 2aa7 903f f4d2 873f e7f0 a5be cbef a3be
00000060: aa69 90bf 0eaf 413f bb7d a03f 8fe2 50bf
00000070: 425b a33f 024e 9d3e ffc9 7b3f 7e93 c1be
00000080: 7232 843e a82b 0b3f 1bfd 953f 80aa b33f
00000090: 3334 7e3f 2595 b13e c413 8b3e 3e60 6e3f
000000a0: c6ff 733f 45e3 7f3f 636a d13f 0c4c ea3f
000000b0: 7552 83bf 34c9 c23f 8c42 8abf 8e96 eebd
000000c0: 295b b33f b621 443f 807b 07c0 954e 21c0
000000d0: 6548 a3be 0109 1cbf 3ae2 54bf d267 fd3f
000000e0: 5ebc 88be 97cf 8d3f 1cd9 20be a28f ce3f
000000f0: 19b2 993c c95f 9b3f 693b 683f 7d14 923f
-0.060756925 0.46219912 1.2363541 0.7608669 0.53486925 -1.5762633 1.1964831 0.69705486
1.2465986 0.9099589 1.2830436 0.6718485 1.0755527 1.2306836 0.79380846 -2.4240448
-0.21032555 1.1625669 0.9108812 0.6947392 1.1301014 1.0611253 -0.32410356 -0.32018885
-1.1282246 0.7565774 1.253837 -0.815957 1.2762225 0.30723578 0.98355097 -0.3780784
0.25819737 0.5436349 1.1717867 1.4036407 0.992984 0.346841 0.27163517 0.93115604
0.95312154 0.9995616 1.6360592 1.8304458 -1.0259539 1.5217652 -1.0801558 -0.1164981
1.4012195 0.7661394 -2.1169128 -2.5204213 -0.3189117 -0.6095124 -0.83157694 1.9797308
-0.26706213 1.1078976 -0.1570782 1.6137583 0.018761681 1.2138606 0.9071565 1.1412503

weight f4 [1, 64]
00000000: 87d4 8d3d d8a0 63bd 7424 5fc1 c7ce 15bd
00000010: 2844 0bbf 6be0 893d 688b 41bd c6a1 92c0
00000020: 4a06 1dbe 617c 84be 3ee4 07bf 8cf6 013e
00000030: c3ca 9cbd 7d3a fbbd 95a0 59bd 228f 523d
00000040: cfae a23d bcb3 3bc1 a3dd 0dbd e94d babd
00000050: 153d 85c1 6151 02bf 7dd1 673d ad8f 5f3d
00000060: deef 9d3d 8258 82bf 1112 fdbd 714e 873d
00000070: b0b4 88bd 4164 1ebd 8dc1 06bd 7ea4 593d
00000080: 8f8f 82c1 8850 a23d 068b 49c1 cc60 1abd
00000090: 33a1 d7bd 5780 48bd 370f 5bbd 9e06 a1bd
000000a0: 1ebf 4cbe 4c26 9ebe 8fa1 d9c0 ce4e c8bd
000000b0: bfda 7b3d 1581 54c1 1d28 843d 6261 093e
000000c0: 61b1 71c1 eba3 8bbd 3e33 873d 3c95 a33d
000000d0: e032 473d 46d8 853d e181 6cbd c610 54c1
000000e0: bd55 5ebd 2821 023e e01e 99bd b4a4 f2c0
000000f0: 6dce 443d 0c7d 5bbd ec0d 48c0 fb0b 33c0
0.06925302 -0.055573314 -13.9464 -0.03657415 -0.54400873 0.067322575 -0.04725209 -4.5822477
-0.1533443 -0.25876144 -0.53082645 0.12691706 -0.07655861 -0.12267015 -0.05313166 0.051406033
0.07943498 -11.73138 -0.034635197 -0.090968914 -16.654825 -0.50905424 0.056596268 0.05458038
0.07711767 -1.018326 -0.123569615 0.066067584 -0.066750884 -0.03866983 -0.03289943 0.053135388
-16.320097 0.07925516 -12.596441 -0.03768997 -0.10528793 -0.04895052 -0.053481307 -0.0786259
-0.1999478 -0.30888593 -6.8009715 -0.09780656 0.06148791 -13.281514 0.064529635 0.13416055
-15.105805 -0.06818374 0.066015705 0.079874486 0.048632503 0.065353915 -0.05774105 -13.254095
-0.054280985 0.1270796 -0.07476592 -7.5826054 0.048048425 -0.05358605 -3.1258497 -2.7976062
