models/model_lup_Aplus_06_04_18_46.pt (torch, 37399 bytes, 5 tensors)

weight f4 [128, 2]
0	0xbfa4072c	-1.2814689
1	0xbf413860	-0.75476646
2	0xbf6cc108	-0.9248204
3	0x3f3d466b	0.73935574
4	0x3e1c5420	0.15266466
5	0xbe0c3cc4	-0.13695055
6	0xbe33532f	-0.17512201
7	0x3e11bf02	0.1423302
8	0x3f7deffd	0.9919432
9	0x3f9a9ed3	1.2079719
10	0x3f94f151	1.1636144
11	0x3f5c4442	0.86041653
12	0x3c0e7ca3	0.008696708
13	0x3fadb51d	1.3570896
14	0x3da0a269	0.07843477
15	0xbea2871a	-0.317437
16	0x3d21cced	0.039502073
17	0xbd51bbc7	-0.05120447
18	0xbeaf86bc	-0.34282482
19	0x3f572218	0.840364
20	0x3dd91603	0.105999015
21	0xbe2aa325	-0.16663797
22	0xbe9d5299	-0.3072708
23	0x3f969013	1.1762718
24	0x3f133fc1	0.57519156
25	0x3f3b22e1	0.73100096
26	0xbe493b1b	-0.19651453
27	0xbf836acc	-1.0266967
28	0x3e2b3129	0.16717972
29	0xbeacecdd	-0.33774462
30	0xbec3c2f3	-0.38234672
31	0x3ea40c75	0.32040754
32	0xbef86e00	-0.48521423
33	0x3ea5b0a2	0.32361323
34	0x3eb797b6	0.35857934
35	0x3eaf627b	0.34254822
36	0xbd98040f	-0.07422649
37	0x3fc32c94	1.5247979
38	0xbf7efe24	-0.9960654
39	0x3f255657	0.6458487
40	0x3f91710a	1.1362622
41	0x3f94a065	1.1611449
42	0x3ec4116a	0.38294536
43	0x3f8fc3df	1.123165
44	0x3d17c550	0.037053406
45	0xbdce26ef	-0.1006602
46	0xbea1f8ef	-0.31635234
47	0x3ece41a3	0.40284452
48	0xbf0bae75	-0.54563075
49	0x3f1d1601	0.613617
50	0x3f884915	1.0647303
51	0x3f392f82	0.72338116
52	0xbe9e45b0	-0.30912542
53	0x3e807834	0.25091708
54	0xbefd296b	-0.49445662
55	0x3f09dfb2	0.53856957
56	0x3e669c60	0.2252059
57	0xbfd405ed	-1.6564308
58	0x3ee131a9	0.439832
59	0xbef15736	-0.4713685
60	0x3f823335	1.0171877
61	0xbf3ed457	-0.74542755
62	0xbe959aec	-0.2921976
63	0xbfb0ee46	-1.3822715
64	0xbf785923	-0.9701101
65	0xbf6fb74b	-0.9363906
66	0x3f88748f	1.0660571
67	0x3f80eae4	1.0071683
68	0xbe8f0258	-0.27931476
69	0x3e4ee0ef	0.20202993
70	0x3e706655	0.23476537
71	0xbe5a29b8	-0.21304977
72	0x3e75a1cc	0.23987502
73	0xbe8d510f	-0.27600905
74	0xbe9339f0	-0.2875514
75	0xbf0eeb29	-0.55827576
76	0xbf24985c	-0.6429498
77	0x3f181082	0.5940019
78	0x3ce6b423	0.028162068
79	0x3f68ac2c	0.90887713
80	0xc034537b	-2.8175952
81	0x40025cec	2.0369215
82	0x3cf99923	0.03046853
83	0xbf8e3749	-1.1110622
84	0xbf0dcaa9	-0.5538736
85	0x3f426e26	0.75949323
86	0x3e71d952	0.23618057
87	0xbe3c334f	-0.18378948
88	0x3f9be189	1.2178203
89	0x3f842897	1.0324887
90	0xbef2c9b9	-0.47419527
91	0x3f3715c3	0.7151758
92	0x3bcc70c5	0.006239029
93	0xbfaaf0b0	-1.3354702
94	0xbf15813b	-0.58400315
95	0x3ecf15f3	0.40446433
96	0x3ed84e31	0.42247155
97	0x3f577d94	0.8417599
98	0xbf27e358	-0.65581274
99	0x3f0d99ba	0.55312693
100	0x3d9e3fad	0.07726989
101	0xbe04960e	-0.12947866
102	0x3f296680	0.6617203
103	0x3f8144ec	1.0099158
104	0xbdaaa6df	-0.083326094
105	0x3d0487f9	0.032356236
106	0x3f0b20f0	0.54347134
107	0xbf0344ef	-0.5127706
108	0x3f386f79	0.72045094
109	0x3f95f4c9	1.1715328
110	0xbf89cff9	-1.0766593
111	0xbf4076b1	-0.7518111
112	0x3ea71df7	0.3264005
113	0x3f56d56c	0.83919406
114	0x3f003bca	0.5009123
115	0x3f5e4dde	0.86837566
116	0xbdce6ebc	-0.10079715
117	0x3e58de93	0.21178655
118	0xbdce69c5	-0.10078768
119	0x3d0dab75	0.034587342
120	0xbed7a63c	-0.42119014
121	0x3f5104ae	0.81647766
122	0xbebc596e	-0.3678698
123	0x3ea60dc3	0.32432374
124	0x3e984a87	0.2974436
125	0xbfcfd416	-1.6236598
126	0xbb9437a2	-0.0045232335
127	0x3e890d98	0.26768184
128	0xbf8b9783	-1.0905613
129	0xbf7a432b	-0.9775874
130	0x3f07bfa7	0.53026813
131	0xbf01f8aa	-0.50770056
132	0xbfa27df4	-1.2694688
133	0xbf7f846a	-0.9981142
134	0x3e631c9c	0.22178882
135	0xbe7e82ef	-0.24854635
136	0xbe90d8d7	-0.28290436
137	0x3e9f5ed4	0.31127036
138	0xbe247d1e	-0.16063353
139	0xbf5764f5	-0.84138423
140	0xbee0d8a8	-0.43915296
141	0x3ec28094	0.37988722
142	0x3e7b9aed	0.24570818
143	0xbf8e832e	-1.1133783
144	0x3d1c0298	0.03808841
145	0xbd91149c	-0.07084009
146	0xbf163824	-0.58679414
147	0xbf6ad84a	-0.9173628
148	0x3f90e99c	1.1321292
149	0x3f45220f	0.77005094
150	0xbf6055d6	-0.87630975
151	0xbf786776	-0.9703287
152	0xbf30d6bd	-0.69077665
153	0xbfa23a2a	-1.2674
154	0xbe6d5a5a	-0.23178998
155	0xbeffc1b5	-0.49952474
156	0x3f5b1e36	0.85592973
157	0x3f63934c	0.8889663
158	0xbef8221b	-0.4846352
159	0x3ed0bf9d	0.4077119
160	0xbf76b537	-0.9637026
161	0xbf2d3746	-0.67662466
162	0x3d6628b5	0.056191165
163	0x3f8f3468	1.1187868
164	0x3cee2f03	0.029075151
165	0x3c46684e	0.012109829
166	0x3d04fbb7	0.032466616
167	0x3d1802a0	0.03711188
168	0x3f44d006	0.7687992
169	0x3f6ed661	0.93295866
170	0x3f55adb1	0.8346816
171	0xbf1a5874	-0.6029122
172	0x3c7f8932	0.015596675
173	0xbdf0558e	-0.11735068
174	0xbecfd709	-0.40593746
175	0xbfa2912b	-1.2700552
176	0x3e7ef737	0.24898992
177	0xbe9552b6	-0.29164666
178	0xbf1bbe5a	-0.6083733
179	0xbf38da5c	-0.7220819
180	0x3f29c08d	0.66309434
181	0xbf13c2e8	-0.5771928
182	0xbfa17d1d	-1.2616307
183	0xbf4128a2	-0.75452626
184	0x3f6580cc	0.89649653
185	0xbf4376e6	-0.763533
186	0xbf27fdeb	-0.65621823
187	0xbf8524c4	-1.0401845
188	0x3f7f2f85	0.99681884
189	0xbf44ecb7	-0.769237
190	0x3d301f1d	0.042998422
191	0xbd1163b8	-0.03549549
192	0x3d4f7505	0.050648708
193	0xbdbdc72f	-0.09266507
194	0xbe55dc3f	-0.20884798
195	0x3e5f7512	0.21822003
196	0xbe453b97	-0.19261013
197	0x3e28a045	0.16467388
198	0xbf3b2b9e	-0.7311343
199	0x3f0be6bd	0.54648954
200	0xbee373ad	-0.4442419
201	0x3eef6268	0.46754766
202	0xbefb266a	-0.49052745
203	0x3f48816e	0.78322494
204	0xbf31a9c2	-0.69399655
205	0xbf9cc8bf	-1.2248763
206	0x3ef41f63	0.47680196
207	0xbee0d85c	-0.4391507
208	0xbee64d0c	-0.44980657
209	0x3ead5746	0.33855647
210	0x3dc1d755	0.094648995
211	0xbe2abcd7	-0.16673599
212	0x3f5bbd64	0.8583586
213	0xbf2c419d	-0.6728762
214	0x3e235226	0.15949306
215	0xbe0ac716	-0.13552508
216	0x3f052325	0.5200675
217	0xbf063160	-0.5241909
218	0xbebaee81	-0.3651009
219	0x3e48a02c	0.1959235
220	0xbf863e56	-1.0487773
221	0xbf5cfa94	-0.8631985
222	0x3f786f13	0.97044486
223	0x3f85c02f	1.0449275
224	0xbf3a1a8b	-0.7269675
225	0x3f14a6c3	0.5806696
226	0x3d352d65	0.044232745
227	0xbd9d5f22	-0.07684161
228	0xbdbafdbd	-0.09130428
229	0xbdd3326a	-0.1031235
230	0xbe3b051f	-0.18263672
231	0x3e22cb61	0.15897895
232	0xbf43f767	-0.7654938
233	0xbfa3c22a	-1.2793629
234	0xbd7b4faa	-0.06135527
235	0x3e7cc114	0.24683028
236	0xbeb51c2f	-0.35373065
237	0x3eecb4bb	0.46231636
238	0xbe495d24	-0.19664437
239	0x3e4f3c15	0.20237763
240	0x3eb9cd23	0.3628932
241	0xbecd2068	-0.40063787
242	0x3de97579	0.11399359
243	0xbe8ce6ca	-0.27519828
244	0x3ed4e1dd	0.4157857
245	0x3f6649e2	0.89956486
246	0x3f55e6cc	0.83555293
247	0xbf202b96	-0.62566507
248	0xbeda7cca	-0.42673331
249	0xbfa5a568	-1.2941103
250	0xbea72a90	-0.3264966
251	0xbf6cfc69	-0.9257265
252	0xbf405ab1	-0.75138384
253	0xbf4cec37	-0.80047935
254	0xba04a358	-0.00050597405
255	0xbd95fb30	-0.07323301

bias f4 [128]
0	0xbf284ea1	-0.6574498
1	0xbe9ccb67	-0.30623934
2	0x3f46380d	0.77429277
3	0xbdb171e2	-0.086642995
4	0xbf855839	-1.0417548
5	0xbf85e626	-1.0460861
6	0xbf4e40c0	-0.8056755
7	0xbd61ddbf	-0.055143114
8	0x3ef165f9	0.4714811
9	0xbe27ee4d	-0.16399498
10	0x3e8a5506	0.27017993
11	0xbeab0fe7	-0.3341057
12	0xbe87f484	-0.26553738
13	0xbf5f9ad8	-0.8734565
14	0x3f6a14cc	0.91437984
15	0xbf2df012	-0.67944443
16	0x3f071d26	0.5277885
17	0xbf38c4a8	-0.72175074
18	0xbf608cb0	-0.8771467
19	0xbee23eb5	-0.44188467
20	0xbf637da8	-0.8886361
21	0xbf358ce7	-0.70918125
22	0x3f49661d	0.7867144
23	0xbe989edb	-0.29808697
24	0x3f88be82	1.0683138
25	0xbed79d40	-0.4211216
26	0x3ee4dff2	0.44702107
27	0x3f057c00	0.52142334
28	0xbf56f4e1	-0.83967406
29	0x3e5f1bf1	0.21788003
30	0xbdb87f1b	-0.090086184
31	0xbf689d29	-0.9086481
32	0xbf1ae5f7	-0.6050715
33	0xbf1ed278	-0.620399
34	0x3e94c9a3	0.29060087
35	0x3f44127b	0.765907
36	0x3f266aaa	0.65006506
37	0xbed1038d	-0.40823022
38	0x3f67807f	0.90430444
39	0xbe9964a6	-0.299596
40	0xbf803549	-1.0016261
41	0xbeded70b	-0.4352344
42	0x3f817037	1.011237
43	0x3f117d9f	0.5683231
44	0xbec85645	-0.39128318
45	0x3ec9ef0d	0.39440194
46	0xbf224f83	-0.63402575
47	0xbf9d078f	-1.2267932
48	0xbe4ca35c	-0.19984192
49	0xbf88e311	-1.0694295
50	0xbbf2d912	-0.0074111307
51	0xbf89e1f3	-1.0772079
52	0x3e44d095	0.19220193
53	0xbef5e446	-0.4802572
54	0xbf6a7683	-0.91587085
55	0xbea9612f	-0.33081958
56	0xbf056727	-0.52110523
57	0xbf018845	-0.50598556
58	0x3f549785	0.830437
59	0xbf190a95	-0.5978177
60	0x3dcf2919	0.10115261
61	0xbd1e9e66	-0.03872528
62	0xbf4fcb1f	-0.81169313
63	0xbf83f8ae	-1.0310266
64	0xbf70e17d	-0.9409407
65	0x3f7d668a	0.9898459
66	0xbf4340ca	-0.76270735
67	0x3ef6395e	0.48090643
68	0x3f60250e	0.8755654
69	0xbe0415ac	-0.12898892
70	0xbf12985d	-0.5726374
71	0xbde2b766	-0.11070137
72	0x3f57da17	0.84317154
73	0xbf6f275a	-0.9341942
74	0xbf65cbf8	-0.89764357
75	0xbf8094d5	-1.004542
76	0xbf8abc69	-1.0838748
77	0xbf603a70	-0.8758917
78	0xbf7b9aef	-0.98283285
79	0xbf39cc14	-0.72577024
80	0xbf42ddb9	-0.7611957
81	0xbf1d17e5	-0.61364585
82	0xbca511a1	-0.020150008
83	0x3f5045b8	0.8135638
84	0xbf73e35d	-0.95268804
85	0xbf2aab05	-0.66667205
86	0x3f155a51	0.58340937
87	0xbf6a9320	-0.91630745
88	0x3f59ff47	0.8515515
89	0xbf2b2d56	-0.6686605
90	0x3f50fa82	0.81632245
91	0xbf416ec1	-0.7555962
92	0x3f589dd9	0.84615856
93	0xbf48ef9a	-0.784906
94	0xbeb94335	-0.36184087
95	0x3f0190dd	0.5061167
96	0xbf12d97e	-0.57363117
97	0x3f6ea57a	0.9322125
98	0x3f727ef6	0.94724977
99	0xbccf0190	-0.0252693
100	0x3f865f50	1.0497837
101	0x3e1171e8	0.14203608
102	0xbf6838a4	-0.90711427
103	0xbf4148c6	-0.7550167
104	0xbf849e68	-1.0360842
105	0x3f6770c2	0.9040643
106	0x3def66cb	0.11689528
107	0x3ea99454	0.33120978
108	0x3f8d4aa8	1.1038408
109	0x3f1bed6b	0.60909146
110	0xbe25f43c	-0.1620645
111	0xbf940c42	-1.1566241
112	0xbeefb403	-0.46817026
113	0xbcb53957	-0.022122068
114	0x3f09a168	0.5376191
115	0x3f02ffb2	0.5117141
116	0xbf6bc2fa	-0.92094386
117	0x3c0b6bbe	0.008509574
118	0x3f46b9e3	0.7762739
119	0x3e5858b0	0.21127582
120	0x3f693da7	0.911097
121	0x3f813b62	1.0096247
122	0xbf096b0a	-0.53678954
123	0x3eaaa996	0.3333251
124	0xbf68fbbf	-0.91009134
125	0xbf317a46	-0.693272
126	0xbf205069	-0.62622696
127	0x3f50ac99	0.81513363

weight f4 [64, 128]
0	0xc04ec242	-3.2306066
1	0x3ec3c6e4	0.3823768
2	0xbedf39a7	-0.43598673
3	0xbd1219a1	-0.035668973
4	0x3efb0168	0.4902451
5	0x3eb415d6	0.3517291
6	0x3eb2e16d	0.3493761
7	0xbf54c295	-0.8310941
8	0xbeb05075	-0.34436384
9	0x3e2c5235	0.16828234
10	0xbf05c281	-0.52249914
11	0x3eb14dcc	0.34629667
12	0x3e083c65	0.13304289
13	0xbfdbb9bc	-1.7166057
14	0xbf353ae7	-0.70793
15	0x3e2b66ec	0.1673848
16	0xbd23221d	-0.039827455
17	0xbbea5d0e	-0.0071522063
18	0x3edd661d	0.4324197
19	0x3eb705ec	0.35746706
20	0x3ec62589	0.38700512
21	0x3ea924f5	0.33036008
22	0xbf0311be	-0.5119895
23	0x3df9c58f	0.121958844
24	0x3e000e8c	0.12505549
25	0x3e14b812	0.14523342
26	0xbd8c56b1	-0.068524726
27	0x3e5d7c32	0.21629408
28	0xbfb35835	-1.4011294
29	0xbf3b0f4a	-0.73070204
30	0xbecff3d8	-0.40615726
31	0xc006e4f8	-2.1077251
32	0xc0612d30	-3.518383
33	0x3e686422	0.22694448
34	0xbcb65a5f	-0.02225989
35	0xbee6538b	-0.44985613
36	0xbf0da9de	-0.5533732
37	0xbfd6b2bc	-1.6773295
38	0x3e39869b	0.18117754
39	0x3e5e1a16	0.21689638
40	0x3f2304c0	0.6367912
41	0xbfcaa8e7	-1.5832795
42	0x3e53f22a	0.20697847
43	0xbe656aae	-0.22403976
44	0x3e2b0b69	0.16703571
45	0x3e297e5f	0.16552113
46	0xbfcc55ca	-1.5963681
47	0x3ea8a8b9	0.32941225
48	0x3e7673aa	0.2406756
49	0x3ebea1a6	0.37232703
50	0xbef88f98	-0.48547053
51	0x3e9b311e	0.3031091
52	0xbe56e08d	-0.20984097
53	0xbef959b2	-0.48701245
54	0x3eb63d41	0.35593608
55	0xc03fdf60	-2.9980087
56	0x3e630a36	0.22171864
57	0x3e7ca3c6	0.2467185
58	0xbdbef8e3	-0.09324815
59	0xbe33c1e8	-0.17554438
60	0x3daca16c	0.08429226
61	0x3e177053	0.14788942
62	0xbfa100ec	-1.2578406
63	0x3d47b6a8	0.04875818
64	0xc0878dd9	-4.2360654
65	0xbf182517	-0.59431595
66	0xc0a0666c	-5.0125027
67	0xbef16127	-0.47144434
68	0xbda8f1ee	-0.082492694
69	0xbfde0ca9	-1.7347614
70	0x3e359856	0.17733893
71	0xbfabdd8e	-1.3426988
72	0xbe9617a1	-0.29314902
73	0xc01f3bc9	-2.488024
74	0x3e5e0f55	0.21685536
75	0xc0603310	-3.5031166
76	0xc05678af	-3.351116
77	0xbfcea3cc	-1.6143737
78	0x3e3bf08a	0.18353477
79	0x3e463d8e	0.19359419
80	0xc02957a2	-2.6459737
81	0x3e8a2e12	0.26988274
82	0xbdaa6030	-0.083191276
83	0xbe81c57f	-0.2534599
84	0x3e94a615	0.2903296
85	0xbe8e3f6a	-0.27782756
86	0xbf0456f5	-0.51695186
87	0xc00e68d4	-2.2251482
88	0xbf275182	-0.65358746
89	0xc00a547a	-2.161406
90	0xbf28b53a	-0.6590153
91	0xc051a4db	-3.275687
92	0xbf3414cf	-0.7034425
93	0xc02e6a32	-2.7252316
94	0xbea43c74	-0.32077372
95	0xbe7acf35	-0.24493106
96	0xbebe68bd	-0.37189284
97	0xbe26acde	-0.16276881
98	0xbdc9d719	-0.0985548
99	0x3ea78c14	0.3272406
100	0x3d6197c0	0.05507636
101	0x3e4ada12	0.1980975
102	0xc04d156f	-3.2044332
103	0xbed07da3	-0.40720853
104	0x3e35b9fb	0.17746727
105	0xbef4381b	-0.47699055
106	0xbec314f0	-0.38101912
107	0xbead3f3e	-0.33837312
108	0xbf334baa	-0.7003733
109	0xbd7552e1	-0.059893493
110	0xc050758a	-3.257174
111	0x3eeb2383	0.4592553
112	0x3ebd612f	0.36988208
113	0xbeaba23d	-0.33522215
114	0xbef6ec7a	-0.48227292
115	0xbe44715d	-0.1918387
116	0xc0660be5	-3.594476
117	0xbbd56d9c	-0.0065133106
118	0x3c9182e4	0.017762609
119	0x3d2142e7	0.039370444
120	0xbf2fd42f	-0.6868314
121	0xbf209ef1	-0.62742525
122	0x3e8c72b7	0.2743127
123	0xbeed54fe	-0.46353906
124	0xc0112597	-2.2679193
125	0xbff6eb00	-1.9290466
126	0xc023dd23	-2.560372
127	0xbeb74d7b	-0.358013
128	0xc01b5db2	-2.4275937
129	0xbf13eda7	-0.57784504
130	0x3f49e7ac	0.7886913
131	0x3f2f35c3	0.6844141
132	0xc003d528	-2.059885
133	0xc0273699	-2.6127074
134	0xbeeadf5e	-0.4587354
135	0x3f278cac	0.65449023
136	0x3f63c41d	0.8897112
137	0x3d47cb30	0.04877776
138	0x3f56b552	0.8387042
139	0xbded691c	-0.11592314
140	0xbe5af1db	-0.21381323
141	0x3caea489	0.02131869
142	0x3f531826	0.8245872
143	0x3e564fea	0.20928922
144	0x3ebcf035	0.36902013
145	0xbd18a977	-0.03727099
146	0xbf02c251	-0.51077753
147	0xbf163a03	-0.5868227
148	0xc0122316	-2.2833915
149	0xbf0f068f	-0.5586938
150	0x3f6f0350	0.9336443
151	0x3ea7aaae	0.32747406
152	0x3ed7cc98	0.4214828
153	0xbfc58a72	-1.5432875
154	0x3f19b0e3	0.6003553
155	0x3e9c393e	0.30512422
156	0xbe141986	-0.14462861
157	0x3e3e1ee6	0.18566474
158	0xbfcdabf9	-1.6068107
159	0xbd14757a	-0.036244847
160	0xbfd4c586	-1.6622779
161	0xbfe84a3f	-1.8147658
162	0x3f347313	0.7048809
163	0x3f3b1e6c	0.73093295
164	0x3f4a228f	0.7895898
165	0x3d32ac8d	0.04362159
166	0x3ea3ee3c	0.32017696
167	0x3d2c5340	0.04207158
168	0xbffdcaa6	-1.9827468
169	0x3e4f75dc	0.20259804
170	0x3e76b79c	0.24093479
171	0x3f4ab465	0.7918151
172	0xbffcbb05	-1.9744574
173	0x3e2ebed4	0.17064983
174	0x3da87557	0.08225506
175	0xbe43370a	-0.19063964
176	0xbbaffee7	-0.005370963
177	0xbead22a6	-0.33815497
178	0x3f613011	0.8796397
179	0xbf961d8f	-1.172777
180	0x3f5e68d9	0.86878735
181	0xbf0f4b16	-0.5597395
182	0xbf93d481	-1.1549226
183	0xbfb4ffaa	-1.4140522
184	0xbe5cb4d6	-0.21553358
185	0xbec1c0dc	-0.37842453
186	0x3f57e2de	0.84330547
187	0x3f3c09ad	0.73452264
188	0x3ddbc536	0.107309744
189	0x3eb90521	0.36136726
190	0xbdc14bbe	-0.09438275
191	0x3ed422df	0.41432855
192	0xc0227f5a	-2.539023
193	0x3ee7bc5f	0.45260903
194	0xc03db6da	-2.9642854
195	0x3f33bc24	0.70208955
196	0x3f28aefc	0.65892005
197	0x3e2f62c4	0.1712752
198	0x3dcb6a36	0.099323675
199	0x3c76446f	0.015030964
200	0x3f5e8f97	0.8693785
201	0xbf10e42d	-0.5659817
202	0xc00e98d7	-2.2280786
203	0xbfeed5cd	-1.8658997
204	0xbf8a6584	-1.081223
205	0x3e1c7555	0.15279134
206	0xbfae916f	-1.3638133
207	0xbd96432d	-0.073370315
208	0xbfbcb487	-1.4742593
209	0xbe84098a	-0.25788528
210	0x3f497496	0.7869352
211	0x3f6b607a	0.91944087
212	0xbf9bcde1	-1.2172204
213	0xbfa75bbf	-1.3074874
214	0x3f724f95	0.9465268
215	0xbe5467cc	-0.2074272
216	0x3f2b140d	0.6682747
217	0xbf08e8ff	-0.53480524
218	0xbd89ab7d	-0.06722162
219	0xc01a5849	-2.4116385
220	0xbf22c6b9	-0.63584477
221	0xbf5d4ff1	-0.86450106
222	0xbfdd82d0	-1.7305546
223	0x3f4d032a	0.8008295
224	0x3f4656a7	0.7747597
225	0x3f4a9d7d	0.7914656
226	0x3f6d38b9	0.92664677
227	0xbe0940ca	-0.13403621
228	0x3f02e932	0.5113708
229	0x3d8de40b	0.06928261
230	0xbf8c8a11	-1.0979635
231	0xbf027590	-0.50960636
232	0x3d6ed897	0.058312025
233	0x3f787739	0.9705692
234	0xbf828242	-1.0196002
235	0x3f57c4c9	0.84284645
236	0x3ed875b6	0.42277306
237	0x3f231f2c	0.6371944
238	0xbfaad4d3	-1.3346199
239	0xc0009a9c	-2.0094366
240	0xbeb6b016	-0.35681218
241	0x3f669246	0.90066946
242	0x3f69441c	0.9111955
243	0x3f3ff027	0.7497582
244	0xbfa72015	-1.3056666
245	0x3f27e9de	0.6559123
246	0x3f1fc475	0.62409145
247	0x3f38facc	0.72257686
248	0x3f1f49c8	0.62221956
249	0x3f6970d5	0.91187793
250	0xbe63f284	-0.22260481
251	0xbf33e60c	-0.702729
252	0xbea5956f	-0.3234057
253	0xbdc45bc2	-0.09587814
254	0xbf70a61a	-0.9400345
255	0x3f7abd49	0.97945076

bias f4 [64]
0	0xbeeaf9a0	-0.45893574
1	0x3f8015fc	1.0006709
2	0x3f974be5	1.1820036
3	0xbe0af2cb	-0.1356918
4	0x3f72c3d1	0.9483004
5	0x3f96d0df	1.1782492
6	0x3fa0be2c	1.2558036
7	0x3c9dfdd2	0.01928607
8	0x3e0fdd15	0.1404918
9	0x3e0e41b6	0.13892254
10	0x3e0c4ba5	0.13700731
11	0xbe43d79f	-0.19125222
12	0xbe7e1d38	-0.24815834
13	0x3e605e76	0.21911034
14	0x3f1f3a1f	0.6219806
15	0x3fae8030	1.363287
16	0x3f16c36e	0.5889195
17	0x3e7b92f1	0.24567772
18	0xbee8e3cd	-0.45486298
19	0xbf26ff89	-0.65233666
20	0xbf2b3c4d	-0.66888887
21	0xbf490462	-0.7852231
22	0xbedcde57	-0.43138382
23	0x3eacdea1	0.33763602
24	0x3f051b88	0.51995134
25	0xbd90a836	-0.07063334
26	0xbef1b63c	-0.47209346
27	0x3f4af09e	0.792734
28	0x3e59f81a	0.2128605
29	0x3ed9c14c	0.42530286
30	0xbe8cd205	-0.27503982
31	0xbeeb603c	-0.45971859
32	0xbf0d0a95	-0.5509427
33	0xbf13a397	-0.57671493
34	0x3e5a9ed7	0.21349655
35	0x3f2eca8b	0.68277806
36	0x3fc380cb	1.527368
37	0xbf05a06c	-0.5219791
38	0x3f251b3f	0.644947
39	0xbe85ef1a	-0.26158983
40	0x3f77ce65	0.9679931
41	0xbf2be5bd	-0.6714743
42	0x3f29c093	0.6630947
43	0xbf1cb63c	-0.6121557
44	0x3e4f61b9	0.20252122
45	0x3fa36820	1.2766151
46	0x3e40f4ff	0.18843459
47	0x3dab72c0	0.08371496
48	0xbedeab84	-0.4349023
49	0xbf181c19	-0.59417874
50	0xbe2e358e	-0.17012617
51	0xbf150894	-0.58216214
52	0x3ea97bc1	0.3310223
53	0xbf4ce84d	-0.8004196
54	0x3f30defd	0.69090253
55	0xbf567b96	-0.8378233
56	0xbf19b066	-0.6003479
57	0xbdfe6147	-0.12420898
58	0x3e9d0112	0.3066488
59	0x3f097c2c	0.53705096
60	0xbf69773f	-0.9119758
61	0xbd2ff409	-0.04295734
62	0x3e1a71b0	0.15082431
63	0xbf30ec6d	-0.6911076

weight f4 [1, 64]
0	0x3edbed76	0.42954606
1	0xbdf15af3	-0.11784925
2	0xbe3ff189	-0.18744482
3	0xbeebb616	-0.46037358
4	0xbd97fcbd	-0.07421253
5	0xc0ae64ff	-5.4498286
6	0x3e1ae5e7	0.15126763
7	0x3d8e55e4	0.06949976
8	0xbf4870c9	-0.78297096
9	0xbf18fd1e	-0.59761226
10	0xbf464d8f	-0.77462095
11	0xbed8d970	-0.42353392
12	0x3d5fa378	0.054599255
13	0xbf511346	-0.81670034
14	0xbef15574	-0.47135508
15	0xc118d6a7	-9.552405
16	0xc015ee52	-2.342671
17	0xbf495561	-0.786459
18	0x3da6e5fb	0.08149334
19	0x3ea97705	0.33098617
20	0x3ebb32f3	0.3656231
21	0x3eb1deac	0.34740198
22	0x3e0b2577	0.1358851
23	0x3f1dd635	0.6165498
24	0xc008f508	-2.1399555
25	0x3ea7185f	0.3263578
26	0x3dd22683	0.10261252
27	0xbfba7b9e	-1.4568975
28	0xbd8cded8	-0.068784416
29	0xbf4ac5fe	-0.7920836
30	0x3d5123af	0.05105942
31	0x3e80f035	0.25183263
32	0x3d841eeb	0.0645121
33	0x3e1c2067	0.15246736
34	0xbf541dc6	-0.8285793
35	0xbe8225c6	-0.25419444
36	0xc133a3c4	-11.227482
37	0x3e41eb45	0.18937404
38	0xbdc35df4	-0.095394045
39	0xbed582ee	-0.41701454
40	0xbd09c43f	-0.03363442
41	0x3ea56c20	0.32309055
42	0xc095d020	-4.681656
43	0x3e8cc4da	0.27493936
44	0xbf3a9b13	-0.72892874
45	0xbd6e60bd	-0.058197726
46	0xbf3866dd	-0.72031957
47	0xbf14cdcb	-0.58126515
48	0x3e45fbe0	0.19334364
49	0x3ecf35ff	0.40470883
50	0x3d3dcd65	0.046338458
51	0x3eed4a63	0.46345815
52	0xbf58e878	-0.8472972
53	0x3ed45f92	0.41479164
54	0xbfa7d166	-1.3110778
55	0x3e63c3cb	0.22242658
56	0x3e919ff8	0.2844236
57	0x3d2a3a7f	0.041559692
58	0xbf5127b4	-0.8170121
59	0xbf806899	-1.0031921
60	0x3e2dd217	0.16974674
61	0x3d0b5f11	0.03402621
62	0xbf506183	-0.8139879
63	0x3f46ac7f	0.7760696
