models/model_nlup_NNplus_100_02_06_11_35.pt (torch, 38031 bytes, 7 tensors)

weight f4 [64, 4]
000000 42 be c4 3f c2 a5 e3 3f 01 f2 44 3d 68 f9 1b 3f
       1.5370562 1.778496 0.048082355 0.6092744
000010 d0 ea aa 3d 25 bf 7c c0 68 cf 9e 3f f2 69 74 3e
       0.08345568 -3.9491665 1.2407045 0.2386854
000020 79 5c e7 be 6b 3b ba be 27 a1 d2 40 11 35 9a 3e
       -0.4518774 -0.36373457 6.582172 0.3011861
000030 59 8e c0 3f db 18 09 c0 93 68 a3 bf 37 11 3b bf
       1.5043441 -2.142142 -1.2766289 -0.7307314
000040 15 c4 ea 3e 5a 13 1d 40 5f 03 6e 3f c0 14 8c 3f
       0.45852724 2.4543061 0.92973894 1.0943832
000050 ef 93 2c be 93 2c 24 bf 52 b5 e9 bd 58 3b d2 3f
       -0.16853307 -0.64130515 -0.11411537 1.642436
000060 82 f1 a1 3e 56 a9 07 c0 34 6f 96 c0 b9 ea 83 3e
       0.31629568 -2.1197104 -4.7010746 0.25765017
000070 64 03 f2 3d c2 b9 54 3e b1 59 b2 bd 70 0f d4 bd
       0.11817053 0.20773986 -0.087085135 -0.10354507
000080 42 2e 1d c0 3a 8e 01 40 1b 35 fd be 2c e2 f4 bd
       -2.4559484 2.0243058 -0.4945458 -0.11957201
000090 56 8f c1 be ac 7d 1c 40 a6 64 9d c0 35 5b c6 3d
       -0.3780467 2.4451704 -4.918536 0.09685365
0000a0 b0 9d a3 3e f9 d6 8a be fb b0 36 c0 2c 4e 9c be
       0.31956244 -0.27117136 -2.854552 -0.3052839
0000b0 b5 b0 62 3f fc 6b 79 40 a4 46 9a 3e 35 35 0b be
       0.88550884 3.8972158 0.3013202 -0.13594516
0000c0 a3 7c 90 bc 44 60 11 c0 31 05 5e 40 1b 2f 0e be
       -0.017637556 -2.2715006 3.4690669 -0.13885157
0000d0 ab 95 ce 3d cb 61 0b 3f 0b 9b 2c be 0a 95 a0 bd
       0.10087141 0.54446095 -0.16856019 -0.07840927
0000e0 a1 d1 98 be 41 21 a3 bf 27 82 7f bf 21 f6 d6 bc
       -0.29847434 -1.2744523 -0.9980797 -0.02624041
0000f0 64 e6 4b bf 91 86 b9 c0 b9 aa 71 3f 2d 47 a8 b8
       -0.79648423 -5.7976766 0.9440113 -8.024122e-05
000100 f7 75 83 3c 30 ab be 3e bd 34 58 bf 19 4c b4 bd
       0.016047461 0.3723998 -0.8445547 -0.08803577
000110 1e 17 bc 3e 52 06 d0 bf a7 31 31 3e 5e 98 02 bf
       0.36736387 -1.6251929 0.17304097 -0.51013744
000120 bf 89 25 bf 16 ce 90 c0 b5 2f 73 bf b7 3b ba 3d
       -0.6466331 -4.525157 -0.9499467 0.09093421
000130 b3 1a 4a bf 13 b9 c1 c0 16 20 c3 c0 6a 7d 78 3e
       -0.7894699 -6.053842 -6.0976667 0.24266592
000140 76 02 6c 3e 69 23 34 c0 b6 19 80 c0 90 29 58 bf
       0.23047814 -2.8146613 -4.0031385 -0.8443842
000150 10 a5 97 3f 1c 83 91 40 7c 2b 8e 40 82 c7 f1 3d
       1.1847248 4.5472546 4.442808 0.11805631
000160 99 8b 71 be 66 d4 4d 3f 03 dd 15 bf b2 d0 58 3e
       -0.23588409 0.8040222 -0.5854036 0.21173361
000170 f1 24 48 3f d2 6c 3b 40 f1 f2 26 3f ac 74 87 bd
       0.7818137 2.9285169 0.6521445 -0.0661405
000180 0d d1 58 3d 8a d3 3e 3e 12 b8 92 bf 60 1a ee bd
       0.05293374 0.18635383 -1.1462424 -0.116261244
000190 35 58 26 bf 26 84 10 40 33 af 41 3e de 49 25 bf
       -0.64978343 2.2580657 0.1891449 -0.6456584
0001a0 64 f5 70 3e 35 f0 f5 3f 5b dc 56 c0 da c3 7c be
       0.23531109 1.921393 -3.3571994 -0.24684086
0001b0 70 6d 96 bf e8 5a 14 40 91 2f 28 3f 34 ac 47 3d
       -1.1752148 2.3180485 0.6569758 0.04874821
0001c0 41 08 bf be b0 ad 54 3f 4f 45 82 40 85 c9 ae 3e
       -0.37310985 0.83077526 4.0709605 0.34138122
0001d0 d1 48 10 3d 68 fd 3a 3f d4 db 48 3f fa f9 26 bb
       0.035225693 0.7304292 0.7846043 -0.0025478587
0001e0 c8 8b 92 bd 75 72 24 3f b4 7d 8c be 02 53 68 bd
       -0.071555674 0.6423715 -0.27439654 -0.056719787
0001f0 07 d3 f3 3d 9f 19 ba 40 5a e1 41 3f bc 88 39 bc
       0.11905485 5.8156276 0.75734484 -0.011324104
000200 61 67 e5 3e 85 61 85 40 8d 0a bc 3e 92 3a 5a 3e
       0.44805434 4.1681542 0.367268 0.21311405
000210 51 11 8a bf 30 08 a5 be 86 61 30 c0 46 c6 2e 3f
       -1.0786535 -0.3223281 -2.7559524 0.6827129
000220 78 00 97 be 88 e9 96 3f 4f 06 28 3f 9d 42 26 3e
       -0.29492545 1.1790018 0.65634626 0.16236348
000230 ec b1 01 3f 5d c1 90 be 11 c8 c4 40 ef 31 46 3e
       0.5066211 -0.28272524 6.149422 0.19354986
000240 38 fa 39 3e b4 59 4e 3f ec 88 f9 3f 4c e6 14 3c
       0.18161857 0.80605626 1.949491 0.00908811
000250 cd af 8a be 18 f4 cc bf 11 dc 99 c0 a2 12 da 3c
       -0.2708725 -1.6011992 -4.8081136 0.026620213
000260 1d 8e 8c bd ec c7 18 3f e8 3a 1a bd d3 e1 84 bc
       -0.068630435 0.59680057 -0.037653834 -0.016220963
000270 d1 b1 6e be ef 68 2d 3f 0e 23 5c be db 24 c4 bc
       -0.23310019 0.6773824 -0.21497747 -0.023943355
000280 fb ab 65 bd fa 80 32 40 e4 84 9e 40 e6 ae 0f 3e
       -0.056072216 2.789122 4.953722 0.14031562
000290 5d df 41 3d 75 52 18 3f b8 ca 90 be e4 b8 c3 bd
       0.047332156 0.5950082 -0.28279662 -0.095567495
0002a0 7c e9 0b c0 a6 f8 38 c0 8a 5d 4c bf e9 51 22 bb
       -2.1861258 -2.8901763 -0.7983023 -0.002476806
0002b0 d1 f0 78 bf c6 2a 8b c0 e2 85 74 c0 df f4 9a 3e
       -0.97242457 -4.3489714 -3.8206716 0.30264947
0002c0 fe 76 c2 bd d6 31 bb 3e ca c2 9a bf b8 51 3f bf
       -0.09495352 0.3656146 -1.2090695 -0.7473407
0002d0 27 2a c6 bf 9b dc 36 c0 33 65 0e bf 4e 5e 43 3f
       -1.5481614 -2.8572147 -0.5562317 0.7631577
0002e0 de 7e 06 bd ad d3 72 3f 17 e3 b8 be 14 55 9a bd
       -0.032835834 0.9485424 -0.36110756 -0.075357586
0002f0 79 81 6c 3f ac 65 7e bf ad af d5 3f aa bc 5f bf
       0.9238506 -0.9937389 1.6694237 -0.87397254
000300 71 c2 72 3f 9f bf 8a 3f 05 16 90 bf eb 1a 98 be
       0.94827944 1.0839728 -1.125672 -0.29708037
000310 06 2b d1 3e f8 72 ee be cf d2 cb c0 3e 92 95 3e
       0.40853137 -0.4657209 -6.3694835 0.29213136
000320 a5 4a 52 bf 45 15 49 bf 7e 65 0a 40 5d 8d a1 be
       -0.8214515 -0.7854808 2.1624446 -0.31553164
000330 b5 54 e3 be f5 0c f5 3f 42 8a 10 be bc 2f 20 bf
       -0.44400564 1.9144579 -0.14115241 -0.62572837
000340 c1 60 24 bd d1 ab c6 bf 28 6e e2 be 36 b7 b5 bf
       -0.040131334 -1.5521184 -0.44224668 -1.4196537
000350 a4 c2 b9 be e7 80 9e be 44 e8 51 c0 65 a5 cd 3d
       -0.36281312 -0.3095772 -3.2798014 0.10041312
000360 8d ed 1a 3f 62 5c 90 3f 24 33 b8 bc 77 bf 9e bf
       0.60518724 1.1278193 -0.022485323 -1.240218
000370 13 35 71 bf e3 18 a4 c0 df 63 39 3e 9e 7a c7 be
       -0.9422161 -5.128038 0.18104504 -0.38960737
000380 38 7a 26 3f 6d 39 7a c0 bf 3c ba bf 12 4f 79 bd
       0.6503024 -3.909755 -1.4549788 -0.060866423
000390 38 c0 c7 bf f8 87 fe bd f5 0d 16 bf 2a 3e 01 bf
       -1.5605536 -0.12428278 -0.58615047 -0.5048548
0003a0 dc 41 fc 3f ca 5b 08 be 4f df 00 3f 43 43 c3 bd
       1.9707599 -0.13316265 0.5034074 -0.095343135
0003b0 4f 5a 63 3e 0d cb bb 3e 08 7a d7 bf 55 bc 13 be
       0.22202419 0.36678353 -1.6834116 -0.14427312
0003c0 9e b7 2d 3f 2d cf a8 40 a3 09 75 40 71 af 93 3e
       0.678583 5.27529 3.8287132 0.2884479
0003d0 7c 8b b3 be 8f 59 bc bd 9d 83 7f 3e 3d 75 bf bf
       -0.35067356 -0.091967694 0.2495255 -1.4957653
0003e0 bc 4c 16 3e 08 50 9a 3e 47 eb 24 3f f6 20 00 bd
       0.1467771 0.30139184 0.64421505 -0.031281434
0003f0 81 15 c2 3f 53 a7 ba 40 29 68 fe bd 5e ae 29 bd
       1.5162812 5.8329253 -0.12422211 -0.041426055

bias f4 [64]
000000 01 f7 b8 bf d8 d8 34 c0 d6 b3 9d c0 03 6e 1e c1
       -1.445038 -2.825735 -4.9282026 -9.901858
000010 50 86 a5 c0 7a 43 17 c1 6f b2 25 c0 8a 50 26 c1
       -5.1726456 -9.453974 -2.5890157 -10.394663
000020 ac 53 12 c1 36 f2 9c c0 53 c9 17 c1 9d f2 01 c0
       -9.145428 -4.904567 -9.486651 -2.030433
000030 33 76 33 c0 67 c1 24 c1 68 98 25 c1 fb d8 af c0
       -2.8040893 -10.297217 -10.349709 -5.495237
000040 72 98 21 c1 dc 58 c4 bf 50 f6 bd 3f 8a 55 dc c0
       -10.099718 -1.5339618 1.4840794 -6.885442
000050 a0 88 f3 c0 79 46 41 c0 90 97 1f c1 70 f7 c8 3f
       -7.610428 -3.0199263 -9.974503 1.5700512
000060 c1 41 20 c1 b9 2c d2 c0 ae 07 32 c0 6b 34 0c c0
       -10.016053 -6.5679593 -2.7817187 -2.1906993
000070 95 30 12 c0 a4 53 23 c1 cf 33 23 c1 50 ff aa c0
       -2.2842152 -10.20792 -10.200149 -5.343666
000080 b5 cb d2 3e 03 05 f4 c0 89 8d 39 c0 68 88 a4 c0
       0.4117104 -7.625612 -2.8992636 -5.141651
000090 f8 84 1d c1 92 ce 35 c0 6c eb 23 c1 20 7a 23 c1
       -9.844963 -2.840733 -10.244976 -10.217316
0000a0 a4 65 68 c0 cd c5 23 c1 3b f4 9c c0 a6 90 4f c0
       -3.6312037 -10.235791 -4.9048133 -3.2432036
0000b0 71 41 a3 c0 4a e4 14 c0 d3 0e 21 c1 da 7f 01 c1
       -5.1017385 -2.3264337 -10.066119 -8.093714
0000c0 f5 ee 20 c0 cc 16 a6 c0 b2 e4 50 c0 5d f1 b0 bf
       -2.5145848 -5.190283 -3.2639585 -1.3823658
0000d0 57 f9 b5 c0 94 a2 17 c0 a6 eb c5 c0 bb 32 00 c0
       -5.686687 -2.369298 -6.1850157 -2.0030963
0000e0 b3 2f c2 bf 1e a8 81 c0 c4 de 8b c0 36 ec 1f c1
       -1.5170807 -4.051772 -4.370943 -9.995169
0000f0 ed 2d 80 c0 33 6c ea c0 ac 5c 26 c1 72 e4 d6 c0
       -4.005606 -7.325708 -10.397625 -6.7153864

weight f4 [64, 64]
000000 da 8a ac 3e f6 17 b1 be 54 a5 0f bf c5 b0 20 bf
       0.33699685 -0.34588593 -0.56111646 -0.6276973
000010 cf 86 35 40 f8 57 34 bb e4 f9 bc 3e 6b dd 16 3e
       2.836353 -0.0027518254 0.369094 0.14732902
000020 cf 98 7c bf 84 b6 19 40 33 95 4a 3d d0 89 11 c1
       -0.9867067 2.4017649 0.049458694 -9.096146
000030 f5 d0 3a 3f 65 f2 2a 3e a0 94 fc 3e 72 43 f4 bd
       0.72975093 0.16694029 0.49332142 -0.11926927
000040 2e 6c 1c 3e aa 74 19 c0 34 48 2e 3f 4d 14 34 bf
       0.15275642 -2.3977456 0.68078923 -0.70343477
000050 05 37 56 40 5f d4 79 bf 38 00 fd 3d 53 02 9b bf
       3.3471081 -0.9758968 0.12353557 -1.2110084
000060 31 d2 dc 3d 4b 4b aa 40 09 4b b7 bf 97 90 e9 be
       0.10782278 5.321691 -1.4319774 -0.45618126
000070 38 bb b0 3e dc d7 89 3e c5 f9 3b 3e 24 46 49 be
       0.34517837 0.269225 0.18356998 -0.19655663
000080 2c 71 25 bf f9 15 29 bf a0 b5 c7 3c 1d 4c 19 bf
       -0.6462581 -0.6604915 0.024378598 -0.59881765
000090 9f 85 76 3e 85 e3 8d 3e a2 7d 31 3e 7b 79 1b 3e
       0.2407441 0.27712646 0.17333081 0.1518306
0000a0 43 63 04 c0 f1 be 08 3e 17 00 50 3e 1e d2 88 3f
       -2.0685585 0.13354088 0.20312534 1.0689123
0000b0 b2 e7 00 bf 34 a4 30 be 74 19 b3 3d 62 84 da 3f
       -0.5035354 -0.17250139 0.08745089 1.707165
0000c0 75 6f 97 c0 c8 e3 a0 3e cb 8f be 3e f3 ed 4a be
       -4.7323556 0.31423783 0.3721908 -0.19817333
0000d0 cc 65 b4 bf 97 9e 8f 3e ed ef e5 40 51 64 64 3c
       -1.4093566 0.28050682 7.185538 0.013939933
0000e0 b9 e4 cd be f5 6c 84 bf 11 5c 8c be 25 7c c4 3e
       -0.40213564 -1.0345751 -0.2741399 0.38375965
0000f0 b1 19 5c be 76 22 a4 40 d5 48 fe 3d 79 0c 10 41
       -0.21494175 5.1292067 0.12416235 9.003045
000100 9c 8c 88 bf 45 c6 05 40 25 e1 30 40 42 8f e3 be
       -1.066791 2.0902264 2.7637417 -0.44445235
000110 6b e4 42 3e 96 30 00 bf ea ce 68 3f 13 4b 5b be
       0.19032447 -0.50074136 0.90940726 -0.21415357
000120 16 94 4b bf 89 d9 08 c1 8b 4d 80 bf 75 e1 c6 be
       -0.79522836 -8.553109 -1.0023664 -0.38843885
000130 32 2e 47 bf 25 e5 8c be 14 61 fd bf dc a6 7f 3f
       -0.77804863 -0.27518573 -1.9795251 0.9986398
000140 09 a5 f8 be 39 77 87 3e 1d 2f 97 bf b3 56 a3 be
       -0.48563412 0.26458147 -1.1811253 -0.31902084
000150 db 04 f3 bf 39 41 68 3f ff ae e9 bf 99 7e 33 3d
       -1.8985857 0.9072452 -1.825653 0.043821905
000160 70 d4 d0 be 96 9b f0 bf 0b dd 00 3f 95 da cf c0
       -0.40787077 -1.8797481 0.50337285 -6.4954324
000170 2e 44 1e 3d 20 7e 80 be b6 9c 6b be 83 79 22 c1
       0.03863924 -0.25096226 -0.23008999 -10.154666
000180 d9 3f d4 bc 35 d3 4a c0 fe 7e 14 40 6b e3 93 c0
       -0.025909351 -3.169141 2.320251 -4.621511
000190 e1 c4 73 be 51 c2 3b c0 72 fd df be e3 d4 49 be
       -0.23805572 -2.9337351 -0.4374805 -0.19710116
0001a0 3f e5 e1 c0 90 fd 14 be ee 0c d1 c1 b7 6f 00 bf
       -7.059234 -0.14549851 -26.131313 -0.50170463
0001b0 28 c8 97 c0 f4 91 0e 3d 98 88 cb be 5c 2a 0c bf
       -4.743183 0.03480716 -0.3975265 -0.54752135
0001c0 39 6e 21 3e 0e 68 05 40 73 cd 10 bf ee e2 c6 bf
       0.15764703 2.084476 -0.5656349 -1.5538003
0001d0 f3 c9 18 40 51 98 67 c0 39 0f 28 c0 e3 5d 9c c0
       2.387326 -3.6186717 -2.625929 -4.886461
0001e0 e4 4d 2f 3f 9b 9f ff 3e 72 8b 0c c0 73 62 cf be
       0.68478227 0.49926457 -2.196011 -0.40504798
0001f0 5f 37 68 3f 62 ee e1 3f 66 58 af be 08 40 09 40
       0.9070949 1.7650874 -0.3424713 2.1445332
000200 58 ee ff c0 57 38 88 40 ab ba f2 3d 57 be b1 3f
       -7.9978447 4.2568774 0.1185201 1.3886212
000210 3e 1e 93 c0 ce 8e 3a 3f 6f b7 49 3f 82 d6 06 3f
       -4.5974417 0.7287415 0.7879552 0.5267106
000220 4c 5f 95 c0 6d 8f 2e be df 6a 1a 3f 29 a3 25 3f
       -4.667883 -0.170469 0.6031932 0.6470209
000230 f1 7f 14 40 6a 36 97 3e 6d c7 51 be fb 09 84 c0
       2.320309 0.29533702 -0.20486231 -4.1262183
000240 ff a2 f0 3e 2c 86 64 3f cd 63 6a bf 77 19 60 c1
       0.46999356 0.8926723 -0.91558534 -14.006217
000250 37 69 82 40 e6 15 ef be 93 f0 48 3f fc 86 51 3f
       4.0753436 -0.46696395 0.7849209 0.81846595
000260 06 91 cf 3e e2 b1 b8 3f d5 72 c9 bd 37 0d 35 3e
       0.40540332 1.4429286 -0.098363556 0.17680822
000270 01 fc 0c be eb 28 95 3e 72 dc 9b 3e 55 be 67 bf
       -0.13768007 0.2913278 0.30441624 -0.905248
000280 3e 16 42 bf 7a 79 66 40 44 5c be bf 2c 7a dc 3f
       -0.7581519 3.6011643 -1.4871907 1.7224784
000290 24 bf 3e 3e 3d 12 5a c0 7d c1 d5 3e ba 28 01 3e
       0.18627602 -3.4073632 0.41749182 0.12613192
0002a0 b7 3f 90 3e e4 e2 a0 3e 1e 5d c6 3f 3b f9 6f bf
       0.2817361 0.31423104 1.5497167 -0.9373967
0002b0 89 14 52 bf 87 88 0d 3f af 4e c1 bd 51 cc 36 bf
       -0.82062584 0.5528645 -0.09438836 -0.7140551
0002c0 1e c2 ab 3f 02 c7 a0 40 45 b1 86 c0 93 2c a9 be
       1.3418615 5.024293 -4.2091393 -0.3304182
0002d0 10 de b9 bf a6 7f 23 3f 26 c7 14 3e 6a ff 89 c0
       -1.4520893 0.6386665 0.14529094 -4.3124285
0002e0 c2 f2 91 be 39 be c1 bf 81 4e 51 c0 a4 2f 96 3c
       -0.28505522 -1.5136176 -3.2704165 0.018333264
0002f0 d5 a0 4a c0 a1 9c 26 c0 6a 9f 09 3f c0 dc a2 be
       -3.1660664 -2.6033099 0.5375887 -0.31809044
000300 a7 3b b1 bf f9 48 04 3f 43 e8 40 40 62 ce f4 be
       -1.384633 0.5167385 3.0141761 -0.47813708
000310 e5 d8 79 3e f6 37 3c bf 59 1c b9 c0 d3 b7 b9 be
       0.24399145 -0.7352289 -5.7847104 -0.3627306
000320 ea 11 37 bf c1 c7 c5 3f 80 53 c9 bf 9c db 4d 3f
       -0.7151171 1.5451585 -1.5728607 0.8041322
000330 aa 43 ce bf fd 2a c3 be 7f b1 59 c0 f0 ad a0 bf
       -1.61144 -0.38118735 -3.4014585 -1.2553082
000340 c7 27 29 bf 20 7f bc bf b1 41 bc bf 52 d6 bd 3e
       -0.6607632 -1.4726295 -1.4707547 0.37077576
000350 4d b6 7b bf dc 5f a4 3f 70 e5 62 c0 23 96 a7 3e
       -0.98325044 1.2841754 -3.5452538 0.32731733
000360 69 49 3a bf fb 97 35 c0 5d ba 16 bf bb 7a c3 3e
       -0.72768265 -2.8374012 -0.5887812 0.38179573
000370 fb ea c8 3e 89 d1 99 be 44 d1 d3 be 00 7d ed 3e
       0.39241776 -0.30042675 -0.41370595 0.4638443
000380 98 b9 8b bf 10 9b ae c0 58 90 28 bf 9d 92 ef 3f
       -1.0916014 -5.4564285 -0.6584525 1.8716618
000390 5a 98 07 be 84 55 b0 40 4e 2c 04 bf 9c 9f 02 bf
       -0.13241711 5.510439 -0.51630104 -0.51024795
0003a0 03 ff c3 bd d3 65 b8 be 96 e2 f5 3f c4 f3 b7 3f
       -0.09570124 -0.36015186 1.9209774 1.4371266
0003b0 b1 83 16 bf ab 29 8f bf 4c 40 0d bf 6d 55 8c 3f
       -0.58794695 -1.1184591 -0.55176234 1.096357
0003c0 79 6c 3a 3f a9 a6 12 41 0c f1 f2 3f 2a 1e 9d bc
       0.72821766 9.1656885 1.8979812 -0.019179422
0003d0 d3 0e d8 3f c5 78 8d c0 9e 77 cf bf b1 c9 dd bd
       1.6879524 -4.4209924 -1.6208379 -0.10829485
0003e0 c5 f0 0c 3f 19 fd 9b bf 7e 53 90 bf 9b 41 81 bf
       0.55054885 -1.2186614 -1.127548 -1.0098146
0003f0 30 a8 be 3e a8 b1 36 c0 d5 06 f1 be ce c5 a3 bd
       0.37237692 -2.8545933 -0.47075525 -0.079967126

bias f4 [64]
000000 f2 50 12 c0 1e 7a f8 3f 87 c8 27 3f c9 77 2f 3f
       -2.2861905 1.9412267 0.65540355 0.6854215
000010 d3 fc a4 bf 2e de 01 c0 0f 49 44 c0 f8 ad b1 bf
       -1.2889656 -2.0291858 -3.0669591 -1.3881216
000020 7e bd 87 bf 61 dc 44 c0 a8 7f cf bf fa e2 b4 3f
       -1.0604703 -3.0759509 -1.6210833 1.4131768
000030 23 dc a3 bf 4c 1d 3b c0 bc 1d 63 bf 3a e3 8d c0
       -1.2801555 -2.9236631 -0.88717246 -4.4339876
000040 5b 3d bb 3f 3b 94 82 c0 6b ba fb be c2 15 3f 3f
       1.4628099 -4.0805945 -0.49165663 0.74642575
000050 39 11 02 c0 58 c3 35 be 05 4c db 3f a2 6a 3b bf
       -2.0323012 -0.17750299 1.7132574 -0.73209584
000060 80 58 60 c0 0b 36 67 bf 8c 2f 4d c0 09 db 3b 40
       -3.5054016 -0.9031684 -3.206027 2.9352438
000070 7f a8 c8 be 76 f7 62 c0 28 51 be 3f 50 41 be 3f
       -0.39191052 -3.5463538 1.4868517 1.4863682
000080 98 6e 35 c0 0d 81 d8 3f ab a8 35 c0 98 e5 85 3f
       -2.834875 1.6914383 -2.8384197 1.0460691
000090 45 af 42 c0 35 90 53 bf 71 69 05 40 80 c3 66 40
       -3.0419476 -0.8264192 2.0845606 3.6056824
0000a0 45 10 7d c0 db 6c 39 3f da 85 84 40 e5 d8 0a 3f
       -3.954118 0.72431725 4.1413393 0.54237205
0000b0 f3 16 8d 3e 62 6d 55 3e 42 2f 0c 40 da c0 07 40
       0.2755657 0.20842507 2.1903844 2.1211457
0000c0 51 e1 8a b9 d3 7d 90 c0 51 8d df be 3c b3 25 40
       -0.00026489285 -4.5153594 -0.43662503 2.5890646
0000d0 8b 8c a7 c0 3f 3d 86 c0 6a c7 39 40 fb bb 90 40
       -5.235906 -4.1949763 2.9027963 4.522947
0000e0 8a c3 04 40 e4 ba da bf 2b 56 36 40 ec 25 70 3f
       2.0744348 -1.7088284 2.8490093 0.93807864
0000f0 6c a5 36 40 db 76 27 c0 40 14 ac c0 54 ca 36 40
       2.8538465 -2.6166294 -5.377472 2.8560991

weight f4 [64, 64]
000000 6d 50 21 3f f5 d0 a8 41 e3 0f 59 3f db 4d 41 c1
       0.63013345 21.10203 0.84789866 -12.081508
000010 3f f3 4b bf ea bf b1 bf e1 4c 5c 3f 53 5d 1a 40
       -0.7966804 -1.3886693 0.8605481 2.411946
000020 a8 2c b1 c0 95 5f 77 c0 be 8e 81 be 90 02 75 40
       -5.536701 -3.8652089 -0.25304216 3.8282814
000030 34 cc b9 be 42 c0 bb bc 35 21 36 40 90 09 88 3d
       -0.36288607 -0.022918824 2.8457768 0.06642449
000040 b5 ec 79 bd cd f1 1e 3f b0 09 2d c1 b4 b4 c7 40
       -0.061016757 0.6208771 -10.814865 6.2408085
000050 5c 51 14 3e 4f 35 63 3f 54 63 2c 3f 70 2c ea 3e
       0.14484161 0.8875322 0.6733906 0.45737028
000060 39 be 8e 3e 71 91 20 3e 81 5f 83 3f 57 7c 90 3f
       0.27879503 0.15680481 1.026352 1.1287946
000070 6f 68 5b bf 04 a1 20 3e 82 e1 72 bf 1a c4 87 c0
       -0.8570623 0.15686423 -0.9487535 -4.242688
000080 af 2a 83 3e 43 1b 42 c0 35 da 5e 3e d2 58 36 c0
       0.25618502 -3.032914 0.21762927 -2.8491712
000090 d1 74 90 c0 51 f9 20 c0 62 b2 28 bf 89 85 34 c1
       -4.51426 -2.515217 -0.6589719 -11.282601
0000a0 9f 77 0c bf 44 90 0f c1 e5 21 db 3f f9 23 84 3f
       -0.5487003 -8.972721 1.7119719 1.0323478
0000b0 83 93 9f 3e e1 1a a1 3f 04 c5 f6 c1 06 2c 93 41
       0.3116723 1.2586328 -30.846199 18.396496
0000c0 4b 32 5b 3f 52 f1 03 c1 6e 22 0f be a1 f6 f0 bf
       0.85623616 -8.246416 -0.13977978 -1.8825265
0000d0 a9 25 30 3f 71 04 ed bd cb 48 ee bf 42 4f 5b c1
       0.68807465 -0.11573113 -1.8615965 -13.70685
0000e0 80 46 1a c2 a7 db 63 3e e6 a0 93 40 92 1e 52 40
       -38.568848 0.2225176 4.613391 3.2831159
0000f0 c7 02 72 40 7b b4 31 3d 78 81 92 3c eb 76 90 c1
       3.7814195 0.04338501 0.017884001 -18.058065
000100 25 4e 39 be 91 92 3b c1 81 f2 35 c0 98 1b 46 c1
       -0.18096216 -11.723283 -2.8429263 -12.381737
000110 c4 2f c5 bf 3b 8b 9c 3f 43 e0 39 3f 95 ef ac 40
       -1.5405202 1.222999 0.7260782 5.404246
000120 54 ac 25 40 b9 52 b1 c1 fc ea 9a bf 75 07 01 40
       2.588643 -22.165392 -1.2102962 2.0160801
000130 94 1a 87 bf d3 73 da c0 8c ee e2 c0 21 e3 72 c1
       -1.0554986 -6.8266387 -7.0916195 -15.180451
000140 fe 08 ed bf 50 dc 59 40 fb 49 3b 41 9b f3 05 c1
       -1.8518369 3.4040718 11.705562 -8.371974
000150 32 46 4b c1 7f 12 7b 40 79 42 5a bf 95 ae 5b c0
       -12.704638 3.923004 -0.8525768 -3.4325306
000160 8a 7d 2e c1 50 4c e1 bf 52 f9 56 c1 06 bb 22 3f
       -10.905649 -1.7601414 -13.435869 0.63566625
000170 c2 be fd 40 33 53 59 c1 89 a1 b4 3f c3 64 9e 3f
       7.929536 -13.582812 1.4111797 1.23745
000180 1e ce 52 40 68 01 c8 c0 3b c2 40 bf 1d d0 0a c1
       3.2938304 -6.2501717 -0.7529637 -8.675809
000190 98 72 95 c1 79 fb c8 c0 9a 26 34 bf 0c e1 aa 3f
       -18.680954 -6.2806973 -0.703714 1.3349929
0001a0 fe 54 a3 bf b1 3e f1 bd 5a 8a 9e 3c 2d ab 81 41
       -1.2760313 -0.117795356 0.01935308 16.208582
0001b0 3b 6e 29 bf c6 0e 5e bf 59 9f cd bf bf 47 86 bd
       -0.66183823 -0.8674129 -1.6064254 -0.06556653
0001c0 c8 73 c8 3f e8 87 17 3f c0 4f 6c 3f 79 75 37 bf
       1.5660334 0.5919175 0.9230919 -0.71663624
0001d0 7b ec d2 bf 03 4e 4d bf ad 53 0e bf fe f2 42 c0
       -1.6478418 -0.8019716 -0.5559643 -3.046081
0001e0 aa 83 05 c1 45 04 1a c1 c5 1b 3f bf ad 41 a2 c0
       -8.344645 -9.626042 -0.7465175 -5.070517
0001f0 13 21 92 bf ee 01 dc be ff 94 a0 bf 63 23 63 3e
       -1.1416343 -0.42970222 -1.254547 0.22181468
000200 76 e2 04 40 9b 6c be 41 71 5b 03 41 59 4a 20 40
       2.076322 23.80303 8.209825 2.5045378
000210 41 82 22 c1 b2 e2 13 40 92 2e b3 c0 82 74 d8 40
       -10.1568 2.3107114 -5.599435 6.764222
000220 b2 5a c6 c1 b3 82 60 c1 6b c4 de bd 4b 53 42 c1
       -24.794285 -14.031909 -0.108773075 -12.145335
000230 e6 19 8f c0 86 c9 1b be 7c 7e 97 40 80 1b b4 be
       -4.4719114 -0.15213594 4.73419 -0.3517723
000240 95 a5 c5 c0 19 bd 30 c0 aa 37 d8 bf d5 16 55 c0
       -6.1764627 -2.7615416 -1.6891987 -3.3295186
000250 7b 04 bc 40 29 2d aa 40 e7 ca 5f 41 73 54 51 3d
       5.875547 5.3180127 13.987037 0.051105928
000260 26 04 16 3e e0 b5 0d c0 ff b2 93 bf 2f 6e 0d 3e
       0.1465002 -2.2142258 -1.1539 0.13811563
000270 e5 ae c2 3e e3 92 a6 3e b4 95 c1 c1 60 bc 10 41
       0.3802406 0.3253394 -24.198097 9.04599
000280 9c 95 1a bf b8 e0 91 bf e3 2d 25 c1 94 4f 25 40
       -0.60384536 -1.1396704 -10.323703 2.582982
000290 8b e6 93 3f 44 46 66 bf 0d 60 dc c1 0a e6 7a c1
       1.1554731 -0.89950967 -27.5469 -15.681162
0002a0 c3 ce 59 bf 5f d8 ca 40 63 aa 0b bc fa 43 12 c1
       -0.8508112 6.3389125 -0.00852451 -9.141596
0002b0 de f5 fc 3e 78 a4 4e bf 79 a2 28 41 c9 c6 51 c1
       0.49406332 -0.8071971 10.539666 -13.111032
0002c0 7b 5c f8 3f f1 83 04 3e 38 3b e4 bf 65 d9 d5 bf
       1.9403223 0.12940957 -1.7830572 -1.6706969
0002d0 fd fc f1 be fe e4 79 c1 35 55 31 3f de be ad 40
       -0.47263327 -15.618406 0.6927064 5.429549
0002e0 6c f6 11 c0 93 75 6b 3f 60 9e 22 40 f5 23 4d c1
       -2.2806654 0.9197628 2.5409164 -12.821279
0002f0 7e 4b 30 40 d4 4c 22 c0 5b 76 91 be d3 44 44 c0
       2.7546077 -2.5359392 -0.2841061 -3.0667007
000300 df 29 aa 3d b1 26 29 41 4b 28 c3 c1 b3 22 ce c1
       0.083087675 10.571946 -24.394674 -25.766943
000310 77 83 f9 3f 3b b4 c1 be 47 76 2d c1 93 46 fc bf
       1.9493245 -0.37832817 -10.841376 -1.9709038
000320 19 bc 87 bf c1 a5 b7 40 ce cd b9 be 17 1a 30 40
       -1.0604278 5.7389836 -0.3628983 2.7515924
000330 bc 67 af c1 a3 c1 53 bf 4d 87 3d c0 6c 21 01 c0
       -21.925652 -0.8271734 -2.961383 -2.017665
000340 87 1c 91 bf 68 f3 1a bd 4b ec 09 c1 12 ef ee c0
       -1.1336831 -0.037829787 -8.620189 -7.4666834
000350 4c 26 6d bf 53 58 5d c1 c2 1a 29 41 10 39 7a c1
       -0.9263656 -13.834064 10.569033 -15.638931
000360 7d f4 c1 c1 89 01 cc 40 27 c3 61 be f1 fd 40 c1
       -24.244379 6.3751874 -0.22047101 -12.061997
000370 97 a5 6a 40 ac c1 36 3e 83 58 5f c1 08 65 e8 3f
       3.6663568 0.17847317 -13.959109 1.8155832
000380 66 73 95 3f a0 ef 33 c1 a9 24 b4 c1 3c 0f ec c0
       1.1675842 -11.246002 -22.5179 -7.3768597
000390 78 35 d8 40 89 90 83 3f 2e b1 a4 3e 23 67 23 3f
       6.756527 1.0278484 0.32166427 0.6382925
0003a0 72 e3 e9 c0 44 ca 16 bf d8 fd f3 bf 05 be 36 c1
       -7.3090143 -0.5890238 -1.9061842 -11.4213915
0003b0 d6 df ad 40 29 a0 68 40 31 be 84 be 28 54 25 41
       5.4335737 3.6347754 -0.25926355 10.333046
0003c0 05 4b a7 c1 d7 fb 8e bf d7 02 83 3e 6a 18 1a bf
       -20.91163 -1.1170605 0.25588104 -0.601935
0003d0 70 89 9d 3f 26 e2 95 3f 16 58 be bf 75 98 1d c0
       1.2307568 1.170964 -1.4870632 -2.4624302
0003e0 57 67 05 c2 9f 68 cb c0 0c 09 11 c0 cb b1 49 40
       -33.350918 -6.356521 -2.2661772 3.1514766
0003f0 1d 81 34 c0 90 8c 5a c1 9c ae 40 bf 08 34 6c 3e
       -2.8203804 -13.659317 -0.7526643 0.23066723

bias f4 [64]
000000 77 87 38 c1 9c 6f 96 3e dd 4c 48 c0 87 b1 86 40
       -11.533072 0.29382026 -3.1296914 4.209171
000010 82 b8 31 3f 8d 6f 3d c0 cf 79 68 40 25 9a 1b c0
       0.6942216 -2.9599335 3.6324346 -2.4312832
000020 72 d4 f0 be b6 82 7d c0 ee 90 aa bf 62 9f 7b 40
       -0.47037083 -3.961103 -1.3325479 3.931603
000030 8f df 53 c0 e8 0a f4 bd 43 b8 34 bf 4e 0d d7 3f
       -3.31052 -0.11916143 -0.7059366 1.6800935
000040 89 d7 13 bf 30 2f 00 3e 43 2c ab bf f9 69 1c bf
       -0.57750756 0.12518 -1.3372883 -0.610992
000050 17 72 be 3f 54 31 a0 bf c4 30 8b be 08 41 4a c0
       1.4878567 -1.2515054 -0.27185643 -3.1602192
000060 b4 88 ca 3e 3d c7 1c c0 a2 9c 94 c0 5c b0 7b c0
       0.3955742 -2.4496605 -4.64412 -3.9326391
000070 2a 58 25 bf db 2a 03 40 5f f2 e7 3e 33 ec 01 40
       -0.6458765 2.0494907 0.45302102 2.0300415
000080 bd 2b 66 3e 6d 20 59 c1 10 82 e6 3f 23 f9 1e c0
       0.22477622 -13.570416 1.8008442 -2.483956
000090 15 c4 14 c1 77 2c 44 40 b2 d1 7d bf 4c 50 9a bf
       -9.297872 3.065214 -0.99148095 -1.2055755
0000a0 04 3d 62 40 20 2a 06 c0 f9 51 76 bf be ad ed 3f
       3.534974 -2.096321 -0.9621883 1.8568647
0000b0 e9 4b 65 3f 52 8b 5b 40 c1 10 52 c0 24 a5 ae 3d
       0.89568955 3.4303784 -3.2822726 0.08527592
0000c0 42 94 e8 3f 0c 1a a6 3f 1b d2 90 bf 02 09 c0 3f
       1.8170245 1.2976699 -1.1314119 1.5002749
0000d0 ce 22 15 40 0f f3 59 3f 8c 50 fe 3f f6 88 50 3f
       2.3302493 0.85136503 1.9868331 0.81458986
0000e0 e8 b6 ab 3e d3 f2 62 c0 fc a1 f5 3e fe 79 7b bf
       0.33537984 -3.5460708 0.47975147 -0.9823302
0000f0 32 cb 95 3f f3 bf f7 bf ec 70 b4 c0 e6 9a 5a be
       1.1702635 -1.9355453 -5.6387844 -0.21348152

weight f4 [1, 64]
000000 c5 a6 1a bd 7b 40 b7 bf 0f 68 aa bd 8f c0 56 3e
       -0.0377567 -1.4316553 -0.08320629 0.20971893
000010 1d 0d 32 c1 e7 0c 01 c1 9a f1 3f be b2 73 9b 3d
       -11.1282015 -8.06565 -0.18744507 0.075904265
000020 6d 16 d7 bd 74 b8 3a c0 f5 77 9b 3d 07 88 6a c1
       -0.10502324 -2.9175081 0.07591239 -14.65821
000030 bc ee fa c0 b0 4e 6d 3f 0a 92 79 bf 6a 50 46 be
       -7.8416424 0.9269819 -0.9748846 -0.19366613
000040 db 32 3d c1 af f2 d5 be 9d 65 34 c0 88 03 2a bf
       -11.824916 -0.41786715 -2.818702 -0.6641164
000050 02 cc 01 bf ae 34 5a bf 10 81 af 3d 3e 5f 87 3d
       -0.50701916 -0.8523663 0.085695386 0.06609963
000060 7c a7 34 be 7b 4e 99 c0 84 17 3a 3e 1d dc 19 c0
       -0.17642015 -4.79083 0.18173033 -2.4040596
000070 70 77 25 3e 07 c9 30 3f b8 21 81 be 7b 78 24 3e
       0.16158843 0.69056743 -0.25221038 0.16061585
000080 ab 9b d1 c0 a0 06 1a bd d5 82 04 3e fb 9b 8c 3e
       -6.5502524 -0.037603974 0.12940533 0.27462754
000090 92 19 ea bc 6a 75 03 3e 24 cc 5d c1 5d 1f 09 bf
       -0.028576646 0.12837759 -13.862339 -0.5356348
0000a0 84 d5 db bd 04 cd cd 3d bf 6a 47 3f 3e 6d 7a bf
       -0.10734084 0.10048869 0.77897257 -0.9782294
0000b0 95 13 36 be 35 7e 98 3e c5 f4 42 c1 30 d8 61 c0
       -0.17780907 0.29783788 -12.184758 -3.52882
0000c0 2c 35 9d be 2a 16 0b c1 78 e4 ca bf cf a4 88 be
       -0.3070463 -8.692911 -1.5850973 -0.2668824
0000d0 95 cf b2 bd 69 68 35 3d f4 cf 91 be b1 ae 3c c1
       -0.087309994 0.044289026 -0.28478968 -11.792649
0000e0 2d e5 99 be d7 25 b2 3d c3 7d 8e 3d 97 88 75 3d
       -0.3005766 0.086986236 0.06957581 0.059944715
0000f0 a8 bd 14 bf 02 a2 ad 3d 71 6a 5a 3d 99 ac 85 3d
       -0.5810189 0.08478166 0.053324167 0.06527061
